<?xml version="1.0"?>
<net name="main_graph" version="11">
	<layers>
		<layer id="0" name="image" type="Parameter" version="opset1">
			<data shape="1,3,1024,1024" element_type="f32" />
			<output>
				<port id="0" precision="FP32" names="image">
					<dim>1</dim>
					<dim>3</dim>
					<dim>1024</dim>
					<dim>1024</dim>
				</port>
			</output>
		</layer>
		<layer id="1" name="/Constant_408" type="Const" version="opset1">
			<data element_type="i64" shape="" offset="0" size="8" />
			<output>
				<port id="0" precision="I64" names="/Constant_408_output_0" />
			</output>
		</layer>
		<layer id="2" name="/Constant_275" type="Const" version="opset1">
			<data element_type="i64" shape="" offset="0" size="8" />
			<output>
				<port id="0" precision="I64" names="/Constant_275_output_0" />
			</output>
		</layer>
		<layer id="3" name="/Constant_24" type="Const" version="opset1">
			<data element_type="f32" shape="1, 3, 4" offset="8" size="48" />
			<output>
				<port id="0" precision="FP32" names="/Constant_24_output_0">
					<dim>1</dim>
					<dim>3</dim>
					<dim>4</dim>
				</port>
			</output>
		</layer>
		<layer id="4" name="/Constant_11" type="Const" version="opset1">
			<data element_type="i64" shape="" offset="0" size="8" />
			<output>
				<port id="0" precision="I64" names="/Constant_11_output_0" />
			</output>
		</layer>
		<layer id="5" name="/backbone/init_block/Constant_4" type="Const" version="opset1">
			<data element_type="i64" shape="" offset="56" size="8" />
			<output>
				<port id="0" precision="I64" names="/backbone/init_block/Constant_4_output_0" />
			</output>
		</layer>
		<layer id="6" name="ShapeOf_210199" type="ShapeOf" version="opset3">
			<data output_type="i64" />
			<input>
				<port id="0" precision="FP32">
					<dim>1</dim>
					<dim>3</dim>
					<dim>1024</dim>
					<dim>1024</dim>
				</port>
			</input>
			<output>
				<port id="1" precision="I64">
					<dim>4</dim>
				</port>
			</output>
		</layer>
		<layer id="7" name="Constant_210200" type="Const" version="opset1">
			<data element_type="i64" shape="" offset="64" size="8" />
			<output>
				<port id="0" precision="I64" />
			</output>
		</layer>
		<layer id="8" name="Constant_210201" type="Const" version="opset1">
			<data element_type="i64" shape="" offset="0" size="8" />
			<output>
				<port id="0" precision="I64" />
			</output>
		</layer>
		<layer id="9" name="Gather_210202" type="Gather" version="opset8">
			<data batch_dims="0" />
			<input>
				<port id="0" precision="I64">
					<dim>4</dim>
				</port>
				<port id="1" precision="I64" />
				<port id="2" precision="I64" />
			</input>
			<output>
				<port id="3" precision="I64" names="/backbone/init_block/Gather_output_0" />
			</output>
		</layer>
		<layer id="10" name="/backbone/init_block/Sub" type="Subtract" version="opset1">
			<data auto_broadcast="numpy" />
			<input>
				<port id="0" precision="I64" />
				<port id="1" precision="I64" />
			</input>
			<output>
				<port id="2" precision="I64" names="/backbone/init_block/Sub_output_0" />
			</output>
		</layer>
		<layer id="11" name="/backbone/init_block/Constant_6" type="Const" version="opset1">
			<data element_type="i64" shape="" offset="64" size="8" />
			<output>
				<port id="0" precision="I64" names="/backbone/init_block/Constant_6_output_0" />
			</output>
		</layer>
		<layer id="12" name="/backbone/init_block/Div" type="Divide" version="opset1">
			<data auto_broadcast="numpy" m_pythondiv="true" />
			<input>
				<port id="0" precision="I64" />
				<port id="1" precision="I64" />
			</input>
			<output>
				<port id="2" precision="I64" names="/backbone/init_block/Cast_1_output_0,/backbone/init_block/Cast_output_0,/backbone/init_block/Div_output_0" />
			</output>
		</layer>
		<layer id="13" name="Constant_210204" type="Const" version="opset1">
			<data element_type="i64" shape="1" offset="72" size="8" />
			<output>
				<port id="0" precision="I64">
					<dim>1</dim>
				</port>
			</output>
		</layer>
		<layer id="14" name="Reshape_210205" type="Reshape" version="opset1">
			<data special_zero="false" />
			<input>
				<port id="0" precision="I64" />
				<port id="1" precision="I64">
					<dim>1</dim>
				</port>
			</input>
			<output>
				<port id="2" precision="I64" names="/backbone/init_block/Unsqueeze_4_output_0,/backbone/init_block/Unsqueeze_output_0">
					<dim>1</dim>
				</port>
			</output>
		</layer>
		<layer id="15" name="/backbone/init_block/Sub_2" type="Subtract" version="opset1">
			<data auto_broadcast="numpy" />
			<input>
				<port id="0" precision="I64" />
				<port id="1" precision="I64" />
			</input>
			<output>
				<port id="2" precision="I64" names="/backbone/init_block/Sub_2_output_0" />
			</output>
		</layer>
		<layer id="16" name="Constant_210305" type="Const" version="opset1">
			<data element_type="i64" shape="1" offset="72" size="8" />
			<output>
				<port id="0" precision="I64">
					<dim>1</dim>
				</port>
			</output>
		</layer>
		<layer id="17" name="Reshape_210306" type="Reshape" version="opset1">
			<data special_zero="false" />
			<input>
				<port id="0" precision="I64" />
				<port id="1" precision="I64">
					<dim>1</dim>
				</port>
			</input>
			<output>
				<port id="2" precision="I64" names="/backbone/init_block/Unsqueeze_1_output_0,/backbone/init_block/Unsqueeze_5_output_0">
					<dim>1</dim>
				</port>
			</output>
		</layer>
		<layer id="18" name="/backbone/init_block/Constant_5" type="Const" version="opset1">
			<data element_type="i64" shape="" offset="56" size="8" />
			<output>
				<port id="0" precision="I64" names="/backbone/init_block/Constant_5_output_0" />
			</output>
		</layer>
		<layer id="19" name="Constant_210471" type="Const" version="opset1">
			<data element_type="i64" shape="" offset="80" size="8" />
			<output>
				<port id="0" precision="I64" />
			</output>
		</layer>
		<layer id="20" name="Constant_210472" type="Const" version="opset1">
			<data element_type="i64" shape="" offset="0" size="8" />
			<output>
				<port id="0" precision="I64" />
			</output>
		</layer>
		<layer id="21" name="Gather_210473" type="Gather" version="opset8">
			<data batch_dims="0" />
			<input>
				<port id="0" precision="I64">
					<dim>4</dim>
				</port>
				<port id="1" precision="I64" />
				<port id="2" precision="I64" />
			</input>
			<output>
				<port id="3" precision="I64" names="/backbone/init_block/Gather_1_output_0" />
			</output>
		</layer>
		<layer id="22" name="/backbone/init_block/Sub_1" type="Subtract" version="opset1">
			<data auto_broadcast="numpy" />
			<input>
				<port id="0" precision="I64" />
				<port id="1" precision="I64" />
			</input>
			<output>
				<port id="2" precision="I64" names="/backbone/init_block/Sub_1_output_0" />
			</output>
		</layer>
		<layer id="23" name="/backbone/init_block/Constant_7" type="Const" version="opset1">
			<data element_type="i64" shape="" offset="64" size="8" />
			<output>
				<port id="0" precision="I64" names="/backbone/init_block/Constant_7_output_0" />
			</output>
		</layer>
		<layer id="24" name="/backbone/init_block/Div_1" type="Divide" version="opset1">
			<data auto_broadcast="numpy" m_pythondiv="true" />
			<input>
				<port id="0" precision="I64" />
				<port id="1" precision="I64" />
			</input>
			<output>
				<port id="2" precision="I64" names="/backbone/init_block/Cast_2_output_0,/backbone/init_block/Cast_3_output_0,/backbone/init_block/Div_1_output_0" />
			</output>
		</layer>
		<layer id="25" name="Constant_210475" type="Const" version="opset1">
			<data element_type="i64" shape="1" offset="72" size="8" />
			<output>
				<port id="0" precision="I64">
					<dim>1</dim>
				</port>
			</output>
		</layer>
		<layer id="26" name="Reshape_210476" type="Reshape" version="opset1">
			<data special_zero="false" />
			<input>
				<port id="0" precision="I64" />
				<port id="1" precision="I64">
					<dim>1</dim>
				</port>
			</input>
			<output>
				<port id="2" precision="I64" names="/backbone/init_block/Unsqueeze_2_output_0,/backbone/init_block/Unsqueeze_6_output_0">
					<dim>1</dim>
				</port>
			</output>
		</layer>
		<layer id="27" name="/backbone/init_block/Sub_3" type="Subtract" version="opset1">
			<data auto_broadcast="numpy" />
			<input>
				<port id="0" precision="I64" />
				<port id="1" precision="I64" />
			</input>
			<output>
				<port id="2" precision="I64" names="/backbone/init_block/Sub_3_output_0" />
			</output>
		</layer>
		<layer id="28" name="Constant_210576" type="Const" version="opset1">
			<data element_type="i64" shape="1" offset="72" size="8" />
			<output>
				<port id="0" precision="I64">
					<dim>1</dim>
				</port>
			</output>
		</layer>
		<layer id="29" name="Reshape_210577" type="Reshape" version="opset1">
			<data special_zero="false" />
			<input>
				<port id="0" precision="I64" />
				<port id="1" precision="I64">
					<dim>1</dim>
				</port>
			</input>
			<output>
				<port id="2" precision="I64" names="/backbone/init_block/Unsqueeze_3_output_0,/backbone/init_block/Unsqueeze_7_output_0">
					<dim>1</dim>
				</port>
			</output>
		</layer>
		<layer id="30" name="/backbone/init_block/Concat" type="Concat" version="opset1">
			<data axis="0" />
			<input>
				<port id="0" precision="I64">
					<dim>1</dim>
				</port>
				<port id="1" precision="I64">
					<dim>1</dim>
				</port>
				<port id="2" precision="I64">
					<dim>1</dim>
				</port>
				<port id="3" precision="I64">
					<dim>1</dim>
				</port>
			</input>
			<output>
				<port id="4" precision="I64" names="/backbone/init_block/Cast_4_output_0,/backbone/init_block/Concat_1_output_0,/backbone/init_block/Concat_output_0">
					<dim>4</dim>
				</port>
			</output>
		</layer>
		<layer id="31" name="/backbone/init_block/ConstantOfShape" type="Const" version="opset1">
			<data element_type="i64" shape="4" offset="88" size="32" />
			<output>
				<port id="0" precision="I64" names="/backbone/init_block/ConstantOfShape_output_0">
					<dim>4</dim>
				</port>
			</output>
		</layer>
		<layer id="32" name="/backbone/init_block/Concat_2" type="Concat" version="opset1">
			<data axis="0" />
			<input>
				<port id="0" precision="I64">
					<dim>4</dim>
				</port>
				<port id="1" precision="I64">
					<dim>4</dim>
				</port>
			</input>
			<output>
				<port id="2" precision="I64" names="/backbone/init_block/Concat_2_output_0">
					<dim>8</dim>
				</port>
			</output>
		</layer>
		<layer id="33" name="/backbone/init_block/Constant_10" type="Const" version="opset1">
			<data element_type="i64" shape="2" offset="120" size="16" />
			<output>
				<port id="0" precision="I64" names="/backbone/init_block/Constant_10_output_0">
					<dim>2</dim>
				</port>
			</output>
		</layer>
		<layer id="34" name="/backbone/init_block/Reshape" type="Reshape" version="opset1">
			<data special_zero="true" />
			<input>
				<port id="0" precision="I64">
					<dim>8</dim>
				</port>
				<port id="1" precision="I64">
					<dim>2</dim>
				</port>
			</input>
			<output>
				<port id="2" precision="I64" names="/backbone/init_block/Reshape_output_0">
					<dim>4</dim>
					<dim>2</dim>
				</port>
			</output>
		</layer>
		<layer id="35" name="/backbone/init_block/Constant_12" type="Const" version="opset1">
			<data element_type="i64" shape="1" offset="136" size="8" />
			<output>
				<port id="0" precision="I64" names="/backbone/init_block/Constant_12_output_0">
					<dim>1</dim>
				</port>
			</output>
		</layer>
		<layer id="36" name="/backbone/init_block/Constant_13" type="Const" version="opset1">
			<data element_type="i64" shape="1" offset="144" size="8" />
			<output>
				<port id="0" precision="I64" names="/backbone/init_block/Constant_13_output_0">
					<dim>1</dim>
				</port>
			</output>
		</layer>
		<layer id="37" name="/backbone/init_block/Constant_14" type="Const" version="opset1">
			<data element_type="i64" shape="1" offset="136" size="8" />
			<output>
				<port id="0" precision="I64" names="/backbone/init_block/Constant_14_output_0">
					<dim>1</dim>
				</port>
			</output>
		</layer>
		<layer id="38" name="/backbone/init_block/Constant_11" type="Const" version="opset1">
			<data element_type="i64" shape="1" offset="0" size="8" />
			<output>
				<port id="0" precision="I64" names="/backbone/init_block/Constant_11_output_0">
					<dim>1</dim>
				</port>
			</output>
		</layer>
		<layer id="39" name="/backbone/init_block/Slice" type="Slice" version="opset8">
			<input>
				<port id="0" precision="I64">
					<dim>4</dim>
					<dim>2</dim>
				</port>
				<port id="1" precision="I64">
					<dim>1</dim>
				</port>
				<port id="2" precision="I64">
					<dim>1</dim>
				</port>
				<port id="3" precision="I64">
					<dim>1</dim>
				</port>
				<port id="4" precision="I64">
					<dim>1</dim>
				</port>
			</input>
			<output>
				<port id="5" precision="I64" names="/backbone/init_block/Slice_output_0">
					<dim>4</dim>
					<dim>2</dim>
				</port>
			</output>
		</layer>
		<layer id="40" name="Constant_120901" type="Const" version="opset1">
			<data element_type="i64" shape="2" offset="152" size="16" />
			<output>
				<port id="0" precision="I64">
					<dim>2</dim>
				</port>
			</output>
		</layer>
		<layer id="41" name="/backbone/init_block/Transpose" type="Transpose" version="opset1">
			<input>
				<port id="0" precision="I64">
					<dim>4</dim>
					<dim>2</dim>
				</port>
				<port id="1" precision="I64">
					<dim>2</dim>
				</port>
			</input>
			<output>
				<port id="2" precision="I64" names="/backbone/init_block/Transpose_output_0">
					<dim>2</dim>
					<dim>4</dim>
				</port>
			</output>
		</layer>
		<layer id="42" name="Constant_143671" type="Const" version="opset1">
			<data element_type="i64" shape="1" offset="136" size="8" />
			<output>
				<port id="0" precision="I64">
					<dim>1</dim>
				</port>
			</output>
		</layer>
		<layer id="43" name="/backbone/init_block/Reshape_1" type="Reshape" version="opset1">
			<data special_zero="true" />
			<input>
				<port id="0" precision="I64">
					<dim>2</dim>
					<dim>4</dim>
				</port>
				<port id="1" precision="I64">
					<dim>1</dim>
				</port>
			</input>
			<output>
				<port id="2" precision="I64" names="/backbone/init_block/Cast_5_output_0,/backbone/init_block/Reshape_1_output_0">
					<dim>8</dim>
				</port>
			</output>
		</layer>
		<layer id="44" name="Constant_120908" type="Const" version="opset1">
			<data element_type="i64" shape="" offset="0" size="8" />
			<output>
				<port id="0" precision="I64" />
			</output>
		</layer>
		<layer id="45" name="Split_120909" type="Split" version="opset1">
			<data num_splits="2" />
			<input>
				<port id="0" precision="I64">
					<dim>8</dim>
				</port>
				<port id="1" precision="I64" />
			</input>
			<output>
				<port id="2" precision="I64">
					<dim>4</dim>
				</port>
				<port id="3" precision="I64">
					<dim>4</dim>
				</port>
			</output>
		</layer>
		<layer id="46" name="Constant_120907" type="Const" version="opset1">
			<data element_type="f32" shape="" offset="168" size="4" />
			<output>
				<port id="0" precision="FP32" />
			</output>
		</layer>
		<layer id="47" name="/backbone/init_block/Pad" type="Pad" version="opset12">
			<data pad_mode="constant" />
			<input>
				<port id="0" precision="FP32">
					<dim>1</dim>
					<dim>3</dim>
					<dim>1024</dim>
					<dim>1024</dim>
				</port>
				<port id="1" precision="I64">
					<dim>4</dim>
				</port>
				<port id="2" precision="I64">
					<dim>4</dim>
				</port>
				<port id="3" precision="FP32" />
			</input>
			<output>
				<port id="4" precision="FP32" names="/backbone/init_block/Pad_output_0">
					<dim>1</dim>
					<dim>3</dim>
					<dim>1025</dim>
					<dim>1025</dim>
				</port>
			</output>
		</layer>
		<layer id="48" name="onnx::Conv_3771" type="Const" version="opset1">
			<data element_type="f32" shape="32, 3, 3, 3" offset="172" size="3456" />
			<output>
				<port id="0" precision="FP32" names="onnx::Conv_3771">
					<dim>32</dim>
					<dim>3</dim>
					<dim>3</dim>
					<dim>3</dim>
				</port>
			</output>
		</layer>
		<layer id="49" name="/backbone/init_block/conv/conv/Conv/WithoutBiases" type="Convolution" version="opset1">
			<data strides="2, 2" dilations="1, 1" pads_begin="0, 0" pads_end="0, 0" auto_pad="explicit" />
			<input>
				<port id="0" precision="FP32">
					<dim>1</dim>
					<dim>3</dim>
					<dim>1025</dim>
					<dim>1025</dim>
				</port>
				<port id="1" precision="FP32">
					<dim>32</dim>
					<dim>3</dim>
					<dim>3</dim>
					<dim>3</dim>
				</port>
			</input>
			<output>
				<port id="2" precision="FP32">
					<dim>1</dim>
					<dim>32</dim>
					<dim>512</dim>
					<dim>512</dim>
				</port>
			</output>
		</layer>
		<layer id="50" name="Reshape_121026" type="Const" version="opset1">
			<data element_type="f32" shape="1, 32, 1, 1" offset="3628" size="128" />
			<output>
				<port id="0" precision="FP32">
					<dim>1</dim>
					<dim>32</dim>
					<dim>1</dim>
					<dim>1</dim>
				</port>
			</output>
		</layer>
		<layer id="51" name="/backbone/init_block/conv/conv/Conv" type="Add" version="opset1">
			<data auto_broadcast="numpy" />
			<input>
				<port id="0" precision="FP32">
					<dim>1</dim>
					<dim>32</dim>
					<dim>512</dim>
					<dim>512</dim>
				</port>
				<port id="1" precision="FP32">
					<dim>1</dim>
					<dim>32</dim>
					<dim>1</dim>
					<dim>1</dim>
				</port>
			</input>
			<output>
				<port id="2" precision="FP32" names="/backbone/init_block/conv/conv/Conv_output_0">
					<dim>1</dim>
					<dim>32</dim>
					<dim>512</dim>
					<dim>512</dim>
				</port>
			</output>
		</layer>
		<layer id="52" name="/backbone/init_block/conv/activ/Mul" type="Swish" version="opset4">
			<input>
				<port id="0" precision="FP32">
					<dim>1</dim>
					<dim>32</dim>
					<dim>512</dim>
					<dim>512</dim>
				</port>
			</input>
			<output>
				<port id="1" precision="FP32" names="/backbone/init_block/conv/activ/Mul_output_0">
					<dim>1</dim>
					<dim>32</dim>
					<dim>512</dim>
					<dim>512</dim>
				</port>
			</output>
		</layer>
		<layer id="53" name="/backbone/stage1/unit1/Constant_2" type="Const" version="opset1">
			<data element_type="i64" shape="" offset="3756" size="8" />
			<output>
				<port id="0" precision="I64" names="/backbone/stage1/unit1/Constant_2_output_0" />
			</output>
		</layer>
		<layer id="54" name="ShapeOf_210741" type="ShapeOf" version="opset3">
			<data output_type="i64" />
			<input>
				<port id="0" precision="FP32">
					<dim>1</dim>
					<dim>32</dim>
					<dim>512</dim>
					<dim>512</dim>
				</port>
			</input>
			<output>
				<port id="1" precision="I64">
					<dim>4</dim>
				</port>
			</output>
		</layer>
		<layer id="55" name="Constant_210742" type="Const" version="opset1">
			<data element_type="i64" shape="" offset="64" size="8" />
			<output>
				<port id="0" precision="I64" />
			</output>
		</layer>
		<layer id="56" name="Constant_210743" type="Const" version="opset1">
			<data element_type="i64" shape="" offset="0" size="8" />
			<output>
				<port id="0" precision="I64" />
			</output>
		</layer>
		<layer id="57" name="Gather_210744" type="Gather" version="opset8">
			<data batch_dims="0" />
			<input>
				<port id="0" precision="I64">
					<dim>4</dim>
				</port>
				<port id="1" precision="I64" />
				<port id="2" precision="I64" />
			</input>
			<output>
				<port id="3" precision="I64" names="/backbone/stage1/unit1/Gather_output_0" />
			</output>
		</layer>
		<layer id="58" name="/backbone/stage1/unit1/Sub" type="Subtract" version="opset1">
			<data auto_broadcast="numpy" />
			<input>
				<port id="0" precision="I64" />
				<port id="1" precision="I64" />
			</input>
			<output>
				<port id="2" precision="I64" names="/backbone/stage1/unit1/Sub_output_0" />
			</output>
		</layer>
		<layer id="59" name="/backbone/stage1/unit1/Constant_4" type="Const" version="opset1">
			<data element_type="i64" shape="" offset="64" size="8" />
			<output>
				<port id="0" precision="I64" names="/backbone/stage1/unit1/Constant_4_output_0" />
			</output>
		</layer>
		<layer id="60" name="/backbone/stage1/unit1/Div" type="Divide" version="opset1">
			<data auto_broadcast="numpy" m_pythondiv="true" />
			<input>
				<port id="0" precision="I64" />
				<port id="1" precision="I64" />
			</input>
			<output>
				<port id="2" precision="I64" names="/backbone/stage1/unit1/Cast_1_output_0,/backbone/stage1/unit1/Cast_output_0,/backbone/stage1/unit1/Div_output_0" />
			</output>
		</layer>
		<layer id="61" name="Constant_210746" type="Const" version="opset1">
			<data element_type="i64" shape="1" offset="72" size="8" />
			<output>
				<port id="0" precision="I64">
					<dim>1</dim>
				</port>
			</output>
		</layer>
		<layer id="62" name="Reshape_210747" type="Reshape" version="opset1">
			<data special_zero="false" />
			<input>
				<port id="0" precision="I64" />
				<port id="1" precision="I64">
					<dim>1</dim>
				</port>
			</input>
			<output>
				<port id="2" precision="I64" names="/backbone/stage1/unit1/Unsqueeze_4_output_0,/backbone/stage1/unit1/Unsqueeze_output_0">
					<dim>1</dim>
				</port>
			</output>
		</layer>
		<layer id="63" name="/backbone/stage1/unit1/Sub_2" type="Subtract" version="opset1">
			<data auto_broadcast="numpy" />
			<input>
				<port id="0" precision="I64" />
				<port id="1" precision="I64" />
			</input>
			<output>
				<port id="2" precision="I64" names="/backbone/stage1/unit1/Sub_2_output_0" />
			</output>
		</layer>
		<layer id="64" name="Constant_210847" type="Const" version="opset1">
			<data element_type="i64" shape="1" offset="72" size="8" />
			<output>
				<port id="0" precision="I64">
					<dim>1</dim>
				</port>
			</output>
		</layer>
		<layer id="65" name="Reshape_210848" type="Reshape" version="opset1">
			<data special_zero="false" />
			<input>
				<port id="0" precision="I64" />
				<port id="1" precision="I64">
					<dim>1</dim>
				</port>
			</input>
			<output>
				<port id="2" precision="I64" names="/backbone/stage1/unit1/Unsqueeze_1_output_0,/backbone/stage1/unit1/Unsqueeze_5_output_0">
					<dim>1</dim>
				</port>
			</output>
		</layer>
		<layer id="66" name="/backbone/stage1/unit1/Constant_3" type="Const" version="opset1">
			<data element_type="i64" shape="" offset="3756" size="8" />
			<output>
				<port id="0" precision="I64" names="/backbone/stage1/unit1/Constant_3_output_0" />
			</output>
		</layer>
		<layer id="67" name="Constant_211013" type="Const" version="opset1">
			<data element_type="i64" shape="" offset="80" size="8" />
			<output>
				<port id="0" precision="I64" />
			</output>
		</layer>
		<layer id="68" name="Constant_211014" type="Const" version="opset1">
			<data element_type="i64" shape="" offset="0" size="8" />
			<output>
				<port id="0" precision="I64" />
			</output>
		</layer>
		<layer id="69" name="Gather_211015" type="Gather" version="opset8">
			<data batch_dims="0" />
			<input>
				<port id="0" precision="I64">
					<dim>4</dim>
				</port>
				<port id="1" precision="I64" />
				<port id="2" precision="I64" />
			</input>
			<output>
				<port id="3" precision="I64" names="/backbone/stage1/unit1/Gather_1_output_0" />
			</output>
		</layer>
		<layer id="70" name="/backbone/stage1/unit1/Sub_1" type="Subtract" version="opset1">
			<data auto_broadcast="numpy" />
			<input>
				<port id="0" precision="I64" />
				<port id="1" precision="I64" />
			</input>
			<output>
				<port id="2" precision="I64" names="/backbone/stage1/unit1/Sub_1_output_0" />
			</output>
		</layer>
		<layer id="71" name="/backbone/stage1/unit1/Constant_5" type="Const" version="opset1">
			<data element_type="i64" shape="" offset="64" size="8" />
			<output>
				<port id="0" precision="I64" names="/backbone/stage1/unit1/Constant_5_output_0" />
			</output>
		</layer>
		<layer id="72" name="/backbone/stage1/unit1/Div_1" type="Divide" version="opset1">
			<data auto_broadcast="numpy" m_pythondiv="true" />
			<input>
				<port id="0" precision="I64" />
				<port id="1" precision="I64" />
			</input>
			<output>
				<port id="2" precision="I64" names="/backbone/stage1/unit1/Cast_2_output_0,/backbone/stage1/unit1/Cast_3_output_0,/backbone/stage1/unit1/Div_1_output_0" />
			</output>
		</layer>
		<layer id="73" name="Constant_211017" type="Const" version="opset1">
			<data element_type="i64" shape="1" offset="72" size="8" />
			<output>
				<port id="0" precision="I64">
					<dim>1</dim>
				</port>
			</output>
		</layer>
		<layer id="74" name="Reshape_211018" type="Reshape" version="opset1">
			<data special_zero="false" />
			<input>
				<port id="0" precision="I64" />
				<port id="1" precision="I64">
					<dim>1</dim>
				</port>
			</input>
			<output>
				<port id="2" precision="I64" names="/backbone/stage1/unit1/Unsqueeze_2_output_0,/backbone/stage1/unit1/Unsqueeze_6_output_0">
					<dim>1</dim>
				</port>
			</output>
		</layer>
		<layer id="75" name="/backbone/stage1/unit1/Sub_3" type="Subtract" version="opset1">
			<data auto_broadcast="numpy" />
			<input>
				<port id="0" precision="I64" />
				<port id="1" precision="I64" />
			</input>
			<output>
				<port id="2" precision="I64" names="/backbone/stage1/unit1/Sub_3_output_0" />
			</output>
		</layer>
		<layer id="76" name="Constant_211118" type="Const" version="opset1">
			<data element_type="i64" shape="1" offset="72" size="8" />
			<output>
				<port id="0" precision="I64">
					<dim>1</dim>
				</port>
			</output>
		</layer>
		<layer id="77" name="Reshape_211119" type="Reshape" version="opset1">
			<data special_zero="false" />
			<input>
				<port id="0" precision="I64" />
				<port id="1" precision="I64">
					<dim>1</dim>
				</port>
			</input>
			<output>
				<port id="2" precision="I64" names="/backbone/stage1/unit1/Unsqueeze_3_output_0,/backbone/stage1/unit1/Unsqueeze_7_output_0">
					<dim>1</dim>
				</port>
			</output>
		</layer>
		<layer id="78" name="/backbone/stage1/unit1/Concat" type="Concat" version="opset1">
			<data axis="0" />
			<input>
				<port id="0" precision="I64">
					<dim>1</dim>
				</port>
				<port id="1" precision="I64">
					<dim>1</dim>
				</port>
				<port id="2" precision="I64">
					<dim>1</dim>
				</port>
				<port id="3" precision="I64">
					<dim>1</dim>
				</port>
			</input>
			<output>
				<port id="4" precision="I64" names="/backbone/stage1/unit1/Cast_4_output_0,/backbone/stage1/unit1/Concat_1_output_0,/backbone/stage1/unit1/Concat_output_0">
					<dim>4</dim>
				</port>
			</output>
		</layer>
		<layer id="79" name="/backbone/stage1/unit1/ConstantOfShape" type="Const" version="opset1">
			<data element_type="i64" shape="4" offset="88" size="32" />
			<output>
				<port id="0" precision="I64" names="/backbone/stage1/unit1/ConstantOfShape_output_0">
					<dim>4</dim>
				</port>
			</output>
		</layer>
		<layer id="80" name="/backbone/stage1/unit1/Concat_2" type="Concat" version="opset1">
			<data axis="0" />
			<input>
				<port id="0" precision="I64">
					<dim>4</dim>
				</port>
				<port id="1" precision="I64">
					<dim>4</dim>
				</port>
			</input>
			<output>
				<port id="2" precision="I64" names="/backbone/stage1/unit1/Concat_2_output_0">
					<dim>8</dim>
				</port>
			</output>
		</layer>
		<layer id="81" name="/backbone/stage1/unit1/Constant_8" type="Const" version="opset1">
			<data element_type="i64" shape="2" offset="120" size="16" />
			<output>
				<port id="0" precision="I64" names="/backbone/stage1/unit1/Constant_8_output_0">
					<dim>2</dim>
				</port>
			</output>
		</layer>
		<layer id="82" name="/backbone/stage1/unit1/Reshape" type="Reshape" version="opset1">
			<data special_zero="true" />
			<input>
				<port id="0" precision="I64">
					<dim>8</dim>
				</port>
				<port id="1" precision="I64">
					<dim>2</dim>
				</port>
			</input>
			<output>
				<port id="2" precision="I64" names="/backbone/stage1/unit1/Reshape_output_0">
					<dim>4</dim>
					<dim>2</dim>
				</port>
			</output>
		</layer>
		<layer id="83" name="/backbone/stage1/unit1/Constant_10" type="Const" version="opset1">
			<data element_type="i64" shape="1" offset="136" size="8" />
			<output>
				<port id="0" precision="I64" names="/backbone/stage1/unit1/Constant_10_output_0">
					<dim>1</dim>
				</port>
			</output>
		</layer>
		<layer id="84" name="/backbone/stage1/unit1/Constant_11" type="Const" version="opset1">
			<data element_type="i64" shape="1" offset="144" size="8" />
			<output>
				<port id="0" precision="I64" names="/backbone/stage1/unit1/Constant_11_output_0">
					<dim>1</dim>
				</port>
			</output>
		</layer>
		<layer id="85" name="/backbone/stage1/unit1/Constant_12" type="Const" version="opset1">
			<data element_type="i64" shape="1" offset="136" size="8" />
			<output>
				<port id="0" precision="I64" names="/backbone/stage1/unit1/Constant_12_output_0">
					<dim>1</dim>
				</port>
			</output>
		</layer>
		<layer id="86" name="/backbone/stage1/unit1/Constant_9" type="Const" version="opset1">
			<data element_type="i64" shape="1" offset="0" size="8" />
			<output>
				<port id="0" precision="I64" names="/backbone/stage1/unit1/Constant_9_output_0">
					<dim>1</dim>
				</port>
			</output>
		</layer>
		<layer id="87" name="/backbone/stage1/unit1/Slice" type="Slice" version="opset8">
			<input>
				<port id="0" precision="I64">
					<dim>4</dim>
					<dim>2</dim>
				</port>
				<port id="1" precision="I64">
					<dim>1</dim>
				</port>
				<port id="2" precision="I64">
					<dim>1</dim>
				</port>
				<port id="3" precision="I64">
					<dim>1</dim>
				</port>
				<port id="4" precision="I64">
					<dim>1</dim>
				</port>
			</input>
			<output>
				<port id="5" precision="I64" names="/backbone/stage1/unit1/Slice_output_0">
					<dim>4</dim>
					<dim>2</dim>
				</port>
			</output>
		</layer>
		<layer id="88" name="Constant_121093" type="Const" version="opset1">
			<data element_type="i64" shape="2" offset="152" size="16" />
			<output>
				<port id="0" precision="I64">
					<dim>2</dim>
				</port>
			</output>
		</layer>
		<layer id="89" name="/backbone/stage1/unit1/Transpose" type="Transpose" version="opset1">
			<input>
				<port id="0" precision="I64">
					<dim>4</dim>
					<dim>2</dim>
				</port>
				<port id="1" precision="I64">
					<dim>2</dim>
				</port>
			</input>
			<output>
				<port id="2" precision="I64" names="/backbone/stage1/unit1/Transpose_output_0">
					<dim>2</dim>
					<dim>4</dim>
				</port>
			</output>
		</layer>
		<layer id="90" name="Constant_143672" type="Const" version="opset1">
			<data element_type="i64" shape="1" offset="136" size="8" />
			<output>
				<port id="0" precision="I64">
					<dim>1</dim>
				</port>
			</output>
		</layer>
		<layer id="91" name="/backbone/stage1/unit1/Reshape_1" type="Reshape" version="opset1">
			<data special_zero="true" />
			<input>
				<port id="0" precision="I64">
					<dim>2</dim>
					<dim>4</dim>
				</port>
				<port id="1" precision="I64">
					<dim>1</dim>
				</port>
			</input>
			<output>
				<port id="2" precision="I64" names="/backbone/stage1/unit1/Cast_5_output_0,/backbone/stage1/unit1/Reshape_1_output_0">
					<dim>8</dim>
				</port>
			</output>
		</layer>
		<layer id="92" name="Constant_121100" type="Const" version="opset1">
			<data element_type="i64" shape="" offset="0" size="8" />
			<output>
				<port id="0" precision="I64" />
			</output>
		</layer>
		<layer id="93" name="Split_121101" type="Split" version="opset1">
			<data num_splits="2" />
			<input>
				<port id="0" precision="I64">
					<dim>8</dim>
				</port>
				<port id="1" precision="I64" />
			</input>
			<output>
				<port id="2" precision="I64">
					<dim>4</dim>
				</port>
				<port id="3" precision="I64">
					<dim>4</dim>
				</port>
			</output>
		</layer>
		<layer id="94" name="Constant_121099" type="Const" version="opset1">
			<data element_type="f32" shape="" offset="168" size="4" />
			<output>
				<port id="0" precision="FP32" />
			</output>
		</layer>
		<layer id="95" name="/backbone/stage1/unit1/Pad" type="Pad" version="opset12">
			<data pad_mode="constant" />
			<input>
				<port id="0" precision="FP32">
					<dim>1</dim>
					<dim>32</dim>
					<dim>512</dim>
					<dim>512</dim>
				</port>
				<port id="1" precision="I64">
					<dim>4</dim>
				</port>
				<port id="2" precision="I64">
					<dim>4</dim>
				</port>
				<port id="3" precision="FP32" />
			</input>
			<output>
				<port id="4" precision="FP32" names="/backbone/stage1/unit1/Pad_output_0">
					<dim>1</dim>
					<dim>32</dim>
					<dim>514</dim>
					<dim>514</dim>
				</port>
			</output>
		</layer>
		<layer id="96" name="Reshape_121213" type="Const" version="opset1">
			<data element_type="f32" shape="32, 1, 1, 3, 3" offset="3764" size="1152" />
			<output>
				<port id="0" precision="FP32">
					<dim>32</dim>
					<dim>1</dim>
					<dim>1</dim>
					<dim>3</dim>
					<dim>3</dim>
				</port>
			</output>
		</layer>
		<layer id="97" name="/backbone/stage1/unit1/dw_conv/conv/Conv/WithoutBiases" type="GroupConvolution" version="opset1">
			<data strides="1, 1" pads_begin="0, 0" pads_end="0, 0" dilations="1, 1" auto_pad="explicit" />
			<input>
				<port id="0" precision="FP32">
					<dim>1</dim>
					<dim>32</dim>
					<dim>514</dim>
					<dim>514</dim>
				</port>
				<port id="1" precision="FP32">
					<dim>32</dim>
					<dim>1</dim>
					<dim>1</dim>
					<dim>3</dim>
					<dim>3</dim>
				</port>
			</input>
			<output>
				<port id="2" precision="FP32">
					<dim>1</dim>
					<dim>32</dim>
					<dim>512</dim>
					<dim>512</dim>
				</port>
			</output>
		</layer>
		<layer id="98" name="Reshape_121265" type="Const" version="opset1">
			<data element_type="f32" shape="1, 32, 1, 1" offset="4916" size="128" />
			<output>
				<port id="0" precision="FP32">
					<dim>1</dim>
					<dim>32</dim>
					<dim>1</dim>
					<dim>1</dim>
				</port>
			</output>
		</layer>
		<layer id="99" name="/backbone/stage1/unit1/dw_conv/conv/Conv" type="Add" version="opset1">
			<data auto_broadcast="numpy" />
			<input>
				<port id="0" precision="FP32">
					<dim>1</dim>
					<dim>32</dim>
					<dim>512</dim>
					<dim>512</dim>
				</port>
				<port id="1" precision="FP32">
					<dim>1</dim>
					<dim>32</dim>
					<dim>1</dim>
					<dim>1</dim>
				</port>
			</input>
			<output>
				<port id="2" precision="FP32" names="/backbone/stage1/unit1/dw_conv/conv/Conv_output_0">
					<dim>1</dim>
					<dim>32</dim>
					<dim>512</dim>
					<dim>512</dim>
				</port>
			</output>
		</layer>
		<layer id="100" name="/backbone/stage1/unit1/dw_conv/activ/Mul" type="Swish" version="opset4">
			<input>
				<port id="0" precision="FP32">
					<dim>1</dim>
					<dim>32</dim>
					<dim>512</dim>
					<dim>512</dim>
				</port>
			</input>
			<output>
				<port id="1" precision="FP32" names="/backbone/stage1/unit1/dw_conv/activ/Mul_output_0">
					<dim>1</dim>
					<dim>32</dim>
					<dim>512</dim>
					<dim>512</dim>
				</port>
			</output>
		</layer>
		<layer id="101" name="Range_121277" type="Const" version="opset1">
			<data element_type="i64" shape="2" offset="5044" size="16" />
			<output>
				<port id="0" precision="I64">
					<dim>2</dim>
				</port>
			</output>
		</layer>
		<layer id="102" name="/backbone/stage1/unit1/se/pool/GlobalAveragePool" type="ReduceMean" version="opset1">
			<data keep_dims="true" />
			<input>
				<port id="0" precision="FP32">
					<dim>1</dim>
					<dim>32</dim>
					<dim>512</dim>
					<dim>512</dim>
				</port>
				<port id="1" precision="I64">
					<dim>2</dim>
				</port>
			</input>
			<output>
				<port id="2" precision="FP32" names="/backbone/stage1/unit1/se/pool/GlobalAveragePool_output_0">
					<dim>1</dim>
					<dim>32</dim>
					<dim>1</dim>
					<dim>1</dim>
				</port>
			</output>
		</layer>
		<layer id="103" name="model.backbone.features.stage1.unit1.se.conv1.weight" type="Const" version="opset1">
			<data element_type="f32" shape="8, 32, 1, 1" offset="5060" size="1024" />
			<output>
				<port id="0" precision="FP32" names="model.backbone.features.stage1.unit1.se.conv1.weight">
					<dim>8</dim>
					<dim>32</dim>
					<dim>1</dim>
					<dim>1</dim>
				</port>
			</output>
		</layer>
		<layer id="104" name="/backbone/stage1/unit1/se/conv1/Conv/WithoutBiases" type="Convolution" version="opset1">
			<data strides="1, 1" dilations="1, 1" pads_begin="0, 0" pads_end="0, 0" auto_pad="explicit" />
			<input>
				<port id="0" precision="FP32">
					<dim>1</dim>
					<dim>32</dim>
					<dim>1</dim>
					<dim>1</dim>
				</port>
				<port id="1" precision="FP32">
					<dim>8</dim>
					<dim>32</dim>
					<dim>1</dim>
					<dim>1</dim>
				</port>
			</input>
			<output>
				<port id="2" precision="FP32">
					<dim>1</dim>
					<dim>8</dim>
					<dim>1</dim>
					<dim>1</dim>
				</port>
			</output>
		</layer>
		<layer id="105" name="Reshape_121295" type="Const" version="opset1">
			<data element_type="f32" shape="1, 8, 1, 1" offset="6084" size="32" />
			<output>
				<port id="0" precision="FP32">
					<dim>1</dim>
					<dim>8</dim>
					<dim>1</dim>
					<dim>1</dim>
				</port>
			</output>
		</layer>
		<layer id="106" name="/backbone/stage1/unit1/se/conv1/Conv" type="Add" version="opset1">
			<data auto_broadcast="numpy" />
			<input>
				<port id="0" precision="FP32">
					<dim>1</dim>
					<dim>8</dim>
					<dim>1</dim>
					<dim>1</dim>
				</port>
				<port id="1" precision="FP32">
					<dim>1</dim>
					<dim>8</dim>
					<dim>1</dim>
					<dim>1</dim>
				</port>
			</input>
			<output>
				<port id="2" precision="FP32" names="/backbone/stage1/unit1/se/conv1/Conv_output_0">
					<dim>1</dim>
					<dim>8</dim>
					<dim>1</dim>
					<dim>1</dim>
				</port>
			</output>
		</layer>
		<layer id="107" name="/backbone/stage1/unit1/se/activ/Mul" type="Swish" version="opset4">
			<input>
				<port id="0" precision="FP32">
					<dim>1</dim>
					<dim>8</dim>
					<dim>1</dim>
					<dim>1</dim>
				</port>
			</input>
			<output>
				<port id="1" precision="FP32" names="/backbone/stage1/unit1/se/activ/Mul_output_0">
					<dim>1</dim>
					<dim>8</dim>
					<dim>1</dim>
					<dim>1</dim>
				</port>
			</output>
		</layer>
		<layer id="108" name="model.backbone.features.stage1.unit1.se.conv2.weight" type="Const" version="opset1">
			<data element_type="f32" shape="32, 8, 1, 1" offset="6116" size="1024" />
			<output>
				<port id="0" precision="FP32" names="model.backbone.features.stage1.unit1.se.conv2.weight">
					<dim>32</dim>
					<dim>8</dim>
					<dim>1</dim>
					<dim>1</dim>
				</port>
			</output>
		</layer>
		<layer id="109" name="/backbone/stage1/unit1/se/conv2/Conv/WithoutBiases" type="Convolution" version="opset1">
			<data strides="1, 1" dilations="1, 1" pads_begin="0, 0" pads_end="0, 0" auto_pad="explicit" />
			<input>
				<port id="0" precision="FP32">
					<dim>1</dim>
					<dim>8</dim>
					<dim>1</dim>
					<dim>1</dim>
				</port>
				<port id="1" precision="FP32">
					<dim>32</dim>
					<dim>8</dim>
					<dim>1</dim>
					<dim>1</dim>
				</port>
			</input>
			<output>
				<port id="2" precision="FP32">
					<dim>1</dim>
					<dim>32</dim>
					<dim>1</dim>
					<dim>1</dim>
				</port>
			</output>
		</layer>
		<layer id="110" name="Reshape_121313" type="Const" version="opset1">
			<data element_type="f32" shape="1, 32, 1, 1" offset="7140" size="128" />
			<output>
				<port id="0" precision="FP32">
					<dim>1</dim>
					<dim>32</dim>
					<dim>1</dim>
					<dim>1</dim>
				</port>
			</output>
		</layer>
		<layer id="111" name="/backbone/stage1/unit1/se/conv2/Conv" type="Add" version="opset1">
			<data auto_broadcast="numpy" />
			<input>
				<port id="0" precision="FP32">
					<dim>1</dim>
					<dim>32</dim>
					<dim>1</dim>
					<dim>1</dim>
				</port>
				<port id="1" precision="FP32">
					<dim>1</dim>
					<dim>32</dim>
					<dim>1</dim>
					<dim>1</dim>
				</port>
			</input>
			<output>
				<port id="2" precision="FP32" names="/backbone/stage1/unit1/se/conv2/Conv_output_0">
					<dim>1</dim>
					<dim>32</dim>
					<dim>1</dim>
					<dim>1</dim>
				</port>
			</output>
		</layer>
		<layer id="112" name="/backbone/stage1/unit1/se/sigmoid/Sigmoid" type="Sigmoid" version="opset1">
			<input>
				<port id="0" precision="FP32">
					<dim>1</dim>
					<dim>32</dim>
					<dim>1</dim>
					<dim>1</dim>
				</port>
			</input>
			<output>
				<port id="1" precision="FP32" names="/backbone/stage1/unit1/se/sigmoid/Sigmoid_output_0">
					<dim>1</dim>
					<dim>32</dim>
					<dim>1</dim>
					<dim>1</dim>
				</port>
			</output>
		</layer>
		<layer id="113" name="/backbone/stage1/unit1/se/Mul" type="Multiply" version="opset1">
			<data auto_broadcast="numpy" />
			<input>
				<port id="0" precision="FP32">
					<dim>1</dim>
					<dim>32</dim>
					<dim>512</dim>
					<dim>512</dim>
				</port>
				<port id="1" precision="FP32">
					<dim>1</dim>
					<dim>32</dim>
					<dim>1</dim>
					<dim>1</dim>
				</port>
			</input>
			<output>
				<port id="2" precision="FP32" names="/backbone/stage1/unit1/se/Mul_output_0">
					<dim>1</dim>
					<dim>32</dim>
					<dim>512</dim>
					<dim>512</dim>
				</port>
			</output>
		</layer>
		<layer id="114" name="onnx::Conv_3777" type="Const" version="opset1">
			<data element_type="f32" shape="16, 32, 1, 1" offset="7268" size="2048" />
			<output>
				<port id="0" precision="FP32" names="onnx::Conv_3777">
					<dim>16</dim>
					<dim>32</dim>
					<dim>1</dim>
					<dim>1</dim>
				</port>
			</output>
		</layer>
		<layer id="115" name="/backbone/stage1/unit1/pw_conv/conv/Conv/WithoutBiases" type="Convolution" version="opset1">
			<data strides="1, 1" dilations="1, 1" pads_begin="0, 0" pads_end="0, 0" auto_pad="explicit" />
			<input>
				<port id="0" precision="FP32">
					<dim>1</dim>
					<dim>32</dim>
					<dim>512</dim>
					<dim>512</dim>
				</port>
				<port id="1" precision="FP32">
					<dim>16</dim>
					<dim>32</dim>
					<dim>1</dim>
					<dim>1</dim>
				</port>
			</input>
			<output>
				<port id="2" precision="FP32">
					<dim>1</dim>
					<dim>16</dim>
					<dim>512</dim>
					<dim>512</dim>
				</port>
			</output>
		</layer>
		<layer id="116" name="Reshape_121331" type="Const" version="opset1">
			<data element_type="f32" shape="1, 16, 1, 1" offset="9316" size="64" />
			<output>
				<port id="0" precision="FP32">
					<dim>1</dim>
					<dim>16</dim>
					<dim>1</dim>
					<dim>1</dim>
				</port>
			</output>
		</layer>
		<layer id="117" name="/backbone/stage1/unit1/pw_conv/conv/Conv" type="Add" version="opset1">
			<data auto_broadcast="numpy" />
			<input>
				<port id="0" precision="FP32">
					<dim>1</dim>
					<dim>16</dim>
					<dim>512</dim>
					<dim>512</dim>
				</port>
				<port id="1" precision="FP32">
					<dim>1</dim>
					<dim>16</dim>
					<dim>1</dim>
					<dim>1</dim>
				</port>
			</input>
			<output>
				<port id="2" precision="FP32" names="/backbone/stage1/unit1/pw_conv/conv/Conv_output_0">
					<dim>1</dim>
					<dim>16</dim>
					<dim>512</dim>
					<dim>512</dim>
				</port>
			</output>
		</layer>
		<layer id="118" name="/backbone/stage1/unit2/Constant_2" type="Const" version="opset1">
			<data element_type="i64" shape="" offset="3756" size="8" />
			<output>
				<port id="0" precision="I64" names="/backbone/stage1/unit2/Constant_2_output_0" />
			</output>
		</layer>
		<layer id="119" name="ShapeOf_211283" type="ShapeOf" version="opset3">
			<data output_type="i64" />
			<input>
				<port id="0" precision="FP32">
					<dim>1</dim>
					<dim>16</dim>
					<dim>512</dim>
					<dim>512</dim>
				</port>
			</input>
			<output>
				<port id="1" precision="I64">
					<dim>4</dim>
				</port>
			</output>
		</layer>
		<layer id="120" name="Constant_211284" type="Const" version="opset1">
			<data element_type="i64" shape="" offset="64" size="8" />
			<output>
				<port id="0" precision="I64" />
			</output>
		</layer>
		<layer id="121" name="Constant_211285" type="Const" version="opset1">
			<data element_type="i64" shape="" offset="0" size="8" />
			<output>
				<port id="0" precision="I64" />
			</output>
		</layer>
		<layer id="122" name="Gather_211286" type="Gather" version="opset8">
			<data batch_dims="0" />
			<input>
				<port id="0" precision="I64">
					<dim>4</dim>
				</port>
				<port id="1" precision="I64" />
				<port id="2" precision="I64" />
			</input>
			<output>
				<port id="3" precision="I64" names="/backbone/stage1/unit2/Gather_output_0" />
			</output>
		</layer>
		<layer id="123" name="/backbone/stage1/unit2/Sub" type="Subtract" version="opset1">
			<data auto_broadcast="numpy" />
			<input>
				<port id="0" precision="I64" />
				<port id="1" precision="I64" />
			</input>
			<output>
				<port id="2" precision="I64" names="/backbone/stage1/unit2/Sub_output_0" />
			</output>
		</layer>
		<layer id="124" name="/backbone/stage1/unit2/Constant_4" type="Const" version="opset1">
			<data element_type="i64" shape="" offset="64" size="8" />
			<output>
				<port id="0" precision="I64" names="/backbone/stage1/unit2/Constant_4_output_0" />
			</output>
		</layer>
		<layer id="125" name="/backbone/stage1/unit2/Div" type="Divide" version="opset1">
			<data auto_broadcast="numpy" m_pythondiv="true" />
			<input>
				<port id="0" precision="I64" />
				<port id="1" precision="I64" />
			</input>
			<output>
				<port id="2" precision="I64" names="/backbone/stage1/unit2/Cast_1_output_0,/backbone/stage1/unit2/Cast_output_0,/backbone/stage1/unit2/Div_output_0" />
			</output>
		</layer>
		<layer id="126" name="Constant_211288" type="Const" version="opset1">
			<data element_type="i64" shape="1" offset="72" size="8" />
			<output>
				<port id="0" precision="I64">
					<dim>1</dim>
				</port>
			</output>
		</layer>
		<layer id="127" name="Reshape_211289" type="Reshape" version="opset1">
			<data special_zero="false" />
			<input>
				<port id="0" precision="I64" />
				<port id="1" precision="I64">
					<dim>1</dim>
				</port>
			</input>
			<output>
				<port id="2" precision="I64" names="/backbone/stage1/unit2/Unsqueeze_4_output_0,/backbone/stage1/unit2/Unsqueeze_output_0">
					<dim>1</dim>
				</port>
			</output>
		</layer>
		<layer id="128" name="/backbone/stage1/unit2/Sub_2" type="Subtract" version="opset1">
			<data auto_broadcast="numpy" />
			<input>
				<port id="0" precision="I64" />
				<port id="1" precision="I64" />
			</input>
			<output>
				<port id="2" precision="I64" names="/backbone/stage1/unit2/Sub_2_output_0" />
			</output>
		</layer>
		<layer id="129" name="Constant_211389" type="Const" version="opset1">
			<data element_type="i64" shape="1" offset="72" size="8" />
			<output>
				<port id="0" precision="I64">
					<dim>1</dim>
				</port>
			</output>
		</layer>
		<layer id="130" name="Reshape_211390" type="Reshape" version="opset1">
			<data special_zero="false" />
			<input>
				<port id="0" precision="I64" />
				<port id="1" precision="I64">
					<dim>1</dim>
				</port>
			</input>
			<output>
				<port id="2" precision="I64" names="/backbone/stage1/unit2/Unsqueeze_1_output_0,/backbone/stage1/unit2/Unsqueeze_5_output_0">
					<dim>1</dim>
				</port>
			</output>
		</layer>
		<layer id="131" name="/backbone/stage1/unit2/Constant_3" type="Const" version="opset1">
			<data element_type="i64" shape="" offset="3756" size="8" />
			<output>
				<port id="0" precision="I64" names="/backbone/stage1/unit2/Constant_3_output_0" />
			</output>
		</layer>
		<layer id="132" name="Constant_211555" type="Const" version="opset1">
			<data element_type="i64" shape="" offset="80" size="8" />
			<output>
				<port id="0" precision="I64" />
			</output>
		</layer>
		<layer id="133" name="Constant_211556" type="Const" version="opset1">
			<data element_type="i64" shape="" offset="0" size="8" />
			<output>
				<port id="0" precision="I64" />
			</output>
		</layer>
		<layer id="134" name="Gather_211557" type="Gather" version="opset8">
			<data batch_dims="0" />
			<input>
				<port id="0" precision="I64">
					<dim>4</dim>
				</port>
				<port id="1" precision="I64" />
				<port id="2" precision="I64" />
			</input>
			<output>
				<port id="3" precision="I64" names="/backbone/stage1/unit2/Gather_1_output_0" />
			</output>
		</layer>
		<layer id="135" name="/backbone/stage1/unit2/Sub_1" type="Subtract" version="opset1">
			<data auto_broadcast="numpy" />
			<input>
				<port id="0" precision="I64" />
				<port id="1" precision="I64" />
			</input>
			<output>
				<port id="2" precision="I64" names="/backbone/stage1/unit2/Sub_1_output_0" />
			</output>
		</layer>
		<layer id="136" name="/backbone/stage1/unit2/Constant_5" type="Const" version="opset1">
			<data element_type="i64" shape="" offset="64" size="8" />
			<output>
				<port id="0" precision="I64" names="/backbone/stage1/unit2/Constant_5_output_0" />
			</output>
		</layer>
		<layer id="137" name="/backbone/stage1/unit2/Div_1" type="Divide" version="opset1">
			<data auto_broadcast="numpy" m_pythondiv="true" />
			<input>
				<port id="0" precision="I64" />
				<port id="1" precision="I64" />
			</input>
			<output>
				<port id="2" precision="I64" names="/backbone/stage1/unit2/Cast_2_output_0,/backbone/stage1/unit2/Cast_3_output_0,/backbone/stage1/unit2/Div_1_output_0" />
			</output>
		</layer>
		<layer id="138" name="Constant_211559" type="Const" version="opset1">
			<data element_type="i64" shape="1" offset="72" size="8" />
			<output>
				<port id="0" precision="I64">
					<dim>1</dim>
				</port>
			</output>
		</layer>
		<layer id="139" name="Reshape_211560" type="Reshape" version="opset1">
			<data special_zero="false" />
			<input>
				<port id="0" precision="I64" />
				<port id="1" precision="I64">
					<dim>1</dim>
				</port>
			</input>
			<output>
				<port id="2" precision="I64" names="/backbone/stage1/unit2/Unsqueeze_2_output_0,/backbone/stage1/unit2/Unsqueeze_6_output_0">
					<dim>1</dim>
				</port>
			</output>
		</layer>
		<layer id="140" name="/backbone/stage1/unit2/Sub_3" type="Subtract" version="opset1">
			<data auto_broadcast="numpy" />
			<input>
				<port id="0" precision="I64" />
				<port id="1" precision="I64" />
			</input>
			<output>
				<port id="2" precision="I64" names="/backbone/stage1/unit2/Sub_3_output_0" />
			</output>
		</layer>
		<layer id="141" name="Constant_211660" type="Const" version="opset1">
			<data element_type="i64" shape="1" offset="72" size="8" />
			<output>
				<port id="0" precision="I64">
					<dim>1</dim>
				</port>
			</output>
		</layer>
		<layer id="142" name="Reshape_211661" type="Reshape" version="opset1">
			<data special_zero="false" />
			<input>
				<port id="0" precision="I64" />
				<port id="1" precision="I64">
					<dim>1</dim>
				</port>
			</input>
			<output>
				<port id="2" precision="I64" names="/backbone/stage1/unit2/Unsqueeze_3_output_0,/backbone/stage1/unit2/Unsqueeze_7_output_0">
					<dim>1</dim>
				</port>
			</output>
		</layer>
		<layer id="143" name="/backbone/stage1/unit2/Concat" type="Concat" version="opset1">
			<data axis="0" />
			<input>
				<port id="0" precision="I64">
					<dim>1</dim>
				</port>
				<port id="1" precision="I64">
					<dim>1</dim>
				</port>
				<port id="2" precision="I64">
					<dim>1</dim>
				</port>
				<port id="3" precision="I64">
					<dim>1</dim>
				</port>
			</input>
			<output>
				<port id="4" precision="I64" names="/backbone/stage1/unit2/Cast_4_output_0,/backbone/stage1/unit2/Concat_1_output_0,/backbone/stage1/unit2/Concat_output_0">
					<dim>4</dim>
				</port>
			</output>
		</layer>
		<layer id="144" name="/backbone/stage1/unit2/ConstantOfShape" type="Const" version="opset1">
			<data element_type="i64" shape="4" offset="88" size="32" />
			<output>
				<port id="0" precision="I64" names="/backbone/stage1/unit2/ConstantOfShape_output_0">
					<dim>4</dim>
				</port>
			</output>
		</layer>
		<layer id="145" name="/backbone/stage1/unit2/Concat_2" type="Concat" version="opset1">
			<data axis="0" />
			<input>
				<port id="0" precision="I64">
					<dim>4</dim>
				</port>
				<port id="1" precision="I64">
					<dim>4</dim>
				</port>
			</input>
			<output>
				<port id="2" precision="I64" names="/backbone/stage1/unit2/Concat_2_output_0">
					<dim>8</dim>
				</port>
			</output>
		</layer>
		<layer id="146" name="/backbone/stage1/unit2/Constant_8" type="Const" version="opset1">
			<data element_type="i64" shape="2" offset="120" size="16" />
			<output>
				<port id="0" precision="I64" names="/backbone/stage1/unit2/Constant_8_output_0">
					<dim>2</dim>
				</port>
			</output>
		</layer>
		<layer id="147" name="/backbone/stage1/unit2/Reshape" type="Reshape" version="opset1">
			<data special_zero="true" />
			<input>
				<port id="0" precision="I64">
					<dim>8</dim>
				</port>
				<port id="1" precision="I64">
					<dim>2</dim>
				</port>
			</input>
			<output>
				<port id="2" precision="I64" names="/backbone/stage1/unit2/Reshape_output_0">
					<dim>4</dim>
					<dim>2</dim>
				</port>
			</output>
		</layer>
		<layer id="148" name="/backbone/stage1/unit2/Constant_10" type="Const" version="opset1">
			<data element_type="i64" shape="1" offset="136" size="8" />
			<output>
				<port id="0" precision="I64" names="/backbone/stage1/unit2/Constant_10_output_0">
					<dim>1</dim>
				</port>
			</output>
		</layer>
		<layer id="149" name="/backbone/stage1/unit2/Constant_11" type="Const" version="opset1">
			<data element_type="i64" shape="1" offset="144" size="8" />
			<output>
				<port id="0" precision="I64" names="/backbone/stage1/unit2/Constant_11_output_0">
					<dim>1</dim>
				</port>
			</output>
		</layer>
		<layer id="150" name="/backbone/stage1/unit2/Constant_12" type="Const" version="opset1">
			<data element_type="i64" shape="1" offset="136" size="8" />
			<output>
				<port id="0" precision="I64" names="/backbone/stage1/unit2/Constant_12_output_0">
					<dim>1</dim>
				</port>
			</output>
		</layer>
		<layer id="151" name="/backbone/stage1/unit2/Constant_9" type="Const" version="opset1">
			<data element_type="i64" shape="1" offset="0" size="8" />
			<output>
				<port id="0" precision="I64" names="/backbone/stage1/unit2/Constant_9_output_0">
					<dim>1</dim>
				</port>
			</output>
		</layer>
		<layer id="152" name="/backbone/stage1/unit2/Slice" type="Slice" version="opset8">
			<input>
				<port id="0" precision="I64">
					<dim>4</dim>
					<dim>2</dim>
				</port>
				<port id="1" precision="I64">
					<dim>1</dim>
				</port>
				<port id="2" precision="I64">
					<dim>1</dim>
				</port>
				<port id="3" precision="I64">
					<dim>1</dim>
				</port>
				<port id="4" precision="I64">
					<dim>1</dim>
				</port>
			</input>
			<output>
				<port id="5" precision="I64" names="/backbone/stage1/unit2/Slice_output_0">
					<dim>4</dim>
					<dim>2</dim>
				</port>
			</output>
		</layer>
		<layer id="153" name="Constant_121396" type="Const" version="opset1">
			<data element_type="i64" shape="2" offset="152" size="16" />
			<output>
				<port id="0" precision="I64">
					<dim>2</dim>
				</port>
			</output>
		</layer>
		<layer id="154" name="/backbone/stage1/unit2/Transpose" type="Transpose" version="opset1">
			<input>
				<port id="0" precision="I64">
					<dim>4</dim>
					<dim>2</dim>
				</port>
				<port id="1" precision="I64">
					<dim>2</dim>
				</port>
			</input>
			<output>
				<port id="2" precision="I64" names="/backbone/stage1/unit2/Transpose_output_0">
					<dim>2</dim>
					<dim>4</dim>
				</port>
			</output>
		</layer>
		<layer id="155" name="Constant_143673" type="Const" version="opset1">
			<data element_type="i64" shape="1" offset="136" size="8" />
			<output>
				<port id="0" precision="I64">
					<dim>1</dim>
				</port>
			</output>
		</layer>
		<layer id="156" name="/backbone/stage1/unit2/Reshape_1" type="Reshape" version="opset1">
			<data special_zero="true" />
			<input>
				<port id="0" precision="I64">
					<dim>2</dim>
					<dim>4</dim>
				</port>
				<port id="1" precision="I64">
					<dim>1</dim>
				</port>
			</input>
			<output>
				<port id="2" precision="I64" names="/backbone/stage1/unit2/Cast_5_output_0,/backbone/stage1/unit2/Reshape_1_output_0">
					<dim>8</dim>
				</port>
			</output>
		</layer>
		<layer id="157" name="Constant_121403" type="Const" version="opset1">
			<data element_type="i64" shape="" offset="0" size="8" />
			<output>
				<port id="0" precision="I64" />
			</output>
		</layer>
		<layer id="158" name="Split_121404" type="Split" version="opset1">
			<data num_splits="2" />
			<input>
				<port id="0" precision="I64">
					<dim>8</dim>
				</port>
				<port id="1" precision="I64" />
			</input>
			<output>
				<port id="2" precision="I64">
					<dim>4</dim>
				</port>
				<port id="3" precision="I64">
					<dim>4</dim>
				</port>
			</output>
		</layer>
		<layer id="159" name="Constant_121402" type="Const" version="opset1">
			<data element_type="f32" shape="" offset="168" size="4" />
			<output>
				<port id="0" precision="FP32" />
			</output>
		</layer>
		<layer id="160" name="/backbone/stage1/unit2/Pad" type="Pad" version="opset12">
			<data pad_mode="constant" />
			<input>
				<port id="0" precision="FP32">
					<dim>1</dim>
					<dim>16</dim>
					<dim>512</dim>
					<dim>512</dim>
				</port>
				<port id="1" precision="I64">
					<dim>4</dim>
				</port>
				<port id="2" precision="I64">
					<dim>4</dim>
				</port>
				<port id="3" precision="FP32" />
			</input>
			<output>
				<port id="4" precision="FP32" names="/backbone/stage1/unit2/Pad_output_0">
					<dim>1</dim>
					<dim>16</dim>
					<dim>514</dim>
					<dim>514</dim>
				</port>
			</output>
		</layer>
		<layer id="161" name="Reshape_121516" type="Const" version="opset1">
			<data element_type="f32" shape="16, 1, 1, 3, 3" offset="9380" size="576" />
			<output>
				<port id="0" precision="FP32">
					<dim>16</dim>
					<dim>1</dim>
					<dim>1</dim>
					<dim>3</dim>
					<dim>3</dim>
				</port>
			</output>
		</layer>
		<layer id="162" name="/backbone/stage1/unit2/dw_conv/conv/Conv/WithoutBiases" type="GroupConvolution" version="opset1">
			<data strides="1, 1" pads_begin="0, 0" pads_end="0, 0" dilations="1, 1" auto_pad="explicit" />
			<input>
				<port id="0" precision="FP32">
					<dim>1</dim>
					<dim>16</dim>
					<dim>514</dim>
					<dim>514</dim>
				</port>
				<port id="1" precision="FP32">
					<dim>16</dim>
					<dim>1</dim>
					<dim>1</dim>
					<dim>3</dim>
					<dim>3</dim>
				</port>
			</input>
			<output>
				<port id="2" precision="FP32">
					<dim>1</dim>
					<dim>16</dim>
					<dim>512</dim>
					<dim>512</dim>
				</port>
			</output>
		</layer>
		<layer id="163" name="Reshape_121568" type="Const" version="opset1">
			<data element_type="f32" shape="1, 16, 1, 1" offset="9956" size="64" />
			<output>
				<port id="0" precision="FP32">
					<dim>1</dim>
					<dim>16</dim>
					<dim>1</dim>
					<dim>1</dim>
				</port>
			</output>
		</layer>
		<layer id="164" name="/backbone/stage1/unit2/dw_conv/conv/Conv" type="Add" version="opset1">
			<data auto_broadcast="numpy" />
			<input>
				<port id="0" precision="FP32">
					<dim>1</dim>
					<dim>16</dim>
					<dim>512</dim>
					<dim>512</dim>
				</port>
				<port id="1" precision="FP32">
					<dim>1</dim>
					<dim>16</dim>
					<dim>1</dim>
					<dim>1</dim>
				</port>
			</input>
			<output>
				<port id="2" precision="FP32" names="/backbone/stage1/unit2/dw_conv/conv/Conv_output_0">
					<dim>1</dim>
					<dim>16</dim>
					<dim>512</dim>
					<dim>512</dim>
				</port>
			</output>
		</layer>
		<layer id="165" name="/backbone/stage1/unit2/dw_conv/activ/Mul" type="Swish" version="opset4">
			<input>
				<port id="0" precision="FP32">
					<dim>1</dim>
					<dim>16</dim>
					<dim>512</dim>
					<dim>512</dim>
				</port>
			</input>
			<output>
				<port id="1" precision="FP32" names="/backbone/stage1/unit2/dw_conv/activ/Mul_output_0">
					<dim>1</dim>
					<dim>16</dim>
					<dim>512</dim>
					<dim>512</dim>
				</port>
			</output>
		</layer>
		<layer id="166" name="Range_121580" type="Const" version="opset1">
			<data element_type="i64" shape="2" offset="5044" size="16" />
			<output>
				<port id="0" precision="I64">
					<dim>2</dim>
				</port>
			</output>
		</layer>
		<layer id="167" name="/backbone/stage1/unit2/se/pool/GlobalAveragePool" type="ReduceMean" version="opset1">
			<data keep_dims="true" />
			<input>
				<port id="0" precision="FP32">
					<dim>1</dim>
					<dim>16</dim>
					<dim>512</dim>
					<dim>512</dim>
				</port>
				<port id="1" precision="I64">
					<dim>2</dim>
				</port>
			</input>
			<output>
				<port id="2" precision="FP32" names="/backbone/stage1/unit2/se/pool/GlobalAveragePool_output_0">
					<dim>1</dim>
					<dim>16</dim>
					<dim>1</dim>
					<dim>1</dim>
				</port>
			</output>
		</layer>
		<layer id="168" name="model.backbone.features.stage1.unit2.se.conv1.weight" type="Const" version="opset1">
			<data element_type="f32" shape="4, 16, 1, 1" offset="10020" size="256" />
			<output>
				<port id="0" precision="FP32" names="model.backbone.features.stage1.unit2.se.conv1.weight">
					<dim>4</dim>
					<dim>16</dim>
					<dim>1</dim>
					<dim>1</dim>
				</port>
			</output>
		</layer>
		<layer id="169" name="/backbone/stage1/unit2/se/conv1/Conv/WithoutBiases" type="Convolution" version="opset1">
			<data strides="1, 1" dilations="1, 1" pads_begin="0, 0" pads_end="0, 0" auto_pad="explicit" />
			<input>
				<port id="0" precision="FP32">
					<dim>1</dim>
					<dim>16</dim>
					<dim>1</dim>
					<dim>1</dim>
				</port>
				<port id="1" precision="FP32">
					<dim>4</dim>
					<dim>16</dim>
					<dim>1</dim>
					<dim>1</dim>
				</port>
			</input>
			<output>
				<port id="2" precision="FP32">
					<dim>1</dim>
					<dim>4</dim>
					<dim>1</dim>
					<dim>1</dim>
				</port>
			</output>
		</layer>
		<layer id="170" name="Reshape_121598" type="Const" version="opset1">
			<data element_type="f32" shape="1, 4, 1, 1" offset="10276" size="16" />
			<output>
				<port id="0" precision="FP32">
					<dim>1</dim>
					<dim>4</dim>
					<dim>1</dim>
					<dim>1</dim>
				</port>
			</output>
		</layer>
		<layer id="171" name="/backbone/stage1/unit2/se/conv1/Conv" type="Add" version="opset1">
			<data auto_broadcast="numpy" />
			<input>
				<port id="0" precision="FP32">
					<dim>1</dim>
					<dim>4</dim>
					<dim>1</dim>
					<dim>1</dim>
				</port>
				<port id="1" precision="FP32">
					<dim>1</dim>
					<dim>4</dim>
					<dim>1</dim>
					<dim>1</dim>
				</port>
			</input>
			<output>
				<port id="2" precision="FP32" names="/backbone/stage1/unit2/se/conv1/Conv_output_0">
					<dim>1</dim>
					<dim>4</dim>
					<dim>1</dim>
					<dim>1</dim>
				</port>
			</output>
		</layer>
		<layer id="172" name="/backbone/stage1/unit2/se/activ/Mul" type="Swish" version="opset4">
			<input>
				<port id="0" precision="FP32">
					<dim>1</dim>
					<dim>4</dim>
					<dim>1</dim>
					<dim>1</dim>
				</port>
			</input>
			<output>
				<port id="1" precision="FP32" names="/backbone/stage1/unit2/se/activ/Mul_output_0">
					<dim>1</dim>
					<dim>4</dim>
					<dim>1</dim>
					<dim>1</dim>
				</port>
			</output>
		</layer>
		<layer id="173" name="model.backbone.features.stage1.unit2.se.conv2.weight" type="Const" version="opset1">
			<data element_type="f32" shape="16, 4, 1, 1" offset="10292" size="256" />
			<output>
				<port id="0" precision="FP32" names="model.backbone.features.stage1.unit2.se.conv2.weight">
					<dim>16</dim>
					<dim>4</dim>
					<dim>1</dim>
					<dim>1</dim>
				</port>
			</output>
		</layer>
		<layer id="174" name="/backbone/stage1/unit2/se/conv2/Conv/WithoutBiases" type="Convolution" version="opset1">
			<data strides="1, 1" dilations="1, 1" pads_begin="0, 0" pads_end="0, 0" auto_pad="explicit" />
			<input>
				<port id="0" precision="FP32">
					<dim>1</dim>
					<dim>4</dim>
					<dim>1</dim>
					<dim>1</dim>
				</port>
				<port id="1" precision="FP32">
					<dim>16</dim>
					<dim>4</dim>
					<dim>1</dim>
					<dim>1</dim>
				</port>
			</input>
			<output>
				<port id="2" precision="FP32">
					<dim>1</dim>
					<dim>16</dim>
					<dim>1</dim>
					<dim>1</dim>
				</port>
			</output>
		</layer>
		<layer id="175" name="Reshape_121616" type="Const" version="opset1">
			<data element_type="f32" shape="1, 16, 1, 1" offset="10548" size="64" />
			<output>
				<port id="0" precision="FP32">
					<dim>1</dim>
					<dim>16</dim>
					<dim>1</dim>
					<dim>1</dim>
				</port>
			</output>
		</layer>
		<layer id="176" name="/backbone/stage1/unit2/se/conv2/Conv" type="Add" version="opset1">
			<data auto_broadcast="numpy" />
			<input>
				<port id="0" precision="FP32">
					<dim>1</dim>
					<dim>16</dim>
					<dim>1</dim>
					<dim>1</dim>
				</port>
				<port id="1" precision="FP32">
					<dim>1</dim>
					<dim>16</dim>
					<dim>1</dim>
					<dim>1</dim>
				</port>
			</input>
			<output>
				<port id="2" precision="FP32" names="/backbone/stage1/unit2/se/conv2/Conv_output_0">
					<dim>1</dim>
					<dim>16</dim>
					<dim>1</dim>
					<dim>1</dim>
				</port>
			</output>
		</layer>
		<layer id="177" name="/backbone/stage1/unit2/se/sigmoid/Sigmoid" type="Sigmoid" version="opset1">
			<input>
				<port id="0" precision="FP32">
					<dim>1</dim>
					<dim>16</dim>
					<dim>1</dim>
					<dim>1</dim>
				</port>
			</input>
			<output>
				<port id="1" precision="FP32" names="/backbone/stage1/unit2/se/sigmoid/Sigmoid_output_0">
					<dim>1</dim>
					<dim>16</dim>
					<dim>1</dim>
					<dim>1</dim>
				</port>
			</output>
		</layer>
		<layer id="178" name="/backbone/stage1/unit2/se/Mul" type="Multiply" version="opset1">
			<data auto_broadcast="numpy" />
			<input>
				<port id="0" precision="FP32">
					<dim>1</dim>
					<dim>16</dim>
					<dim>512</dim>
					<dim>512</dim>
				</port>
				<port id="1" precision="FP32">
					<dim>1</dim>
					<dim>16</dim>
					<dim>1</dim>
					<dim>1</dim>
				</port>
			</input>
			<output>
				<port id="2" precision="FP32" names="/backbone/stage1/unit2/se/Mul_output_0">
					<dim>1</dim>
					<dim>16</dim>
					<dim>512</dim>
					<dim>512</dim>
				</port>
			</output>
		</layer>
		<layer id="179" name="onnx::Conv_3783" type="Const" version="opset1">
			<data element_type="f32" shape="16, 16, 1, 1" offset="10612" size="1024" />
			<output>
				<port id="0" precision="FP32" names="onnx::Conv_3783">
					<dim>16</dim>
					<dim>16</dim>
					<dim>1</dim>
					<dim>1</dim>
				</port>
			</output>
		</layer>
		<layer id="180" name="/backbone/stage1/unit2/pw_conv/conv/Conv/WithoutBiases" type="Convolution" version="opset1">
			<data strides="1, 1" dilations="1, 1" pads_begin="0, 0" pads_end="0, 0" auto_pad="explicit" />
			<input>
				<port id="0" precision="FP32">
					<dim>1</dim>
					<dim>16</dim>
					<dim>512</dim>
					<dim>512</dim>
				</port>
				<port id="1" precision="FP32">
					<dim>16</dim>
					<dim>16</dim>
					<dim>1</dim>
					<dim>1</dim>
				</port>
			</input>
			<output>
				<port id="2" precision="FP32">
					<dim>1</dim>
					<dim>16</dim>
					<dim>512</dim>
					<dim>512</dim>
				</port>
			</output>
		</layer>
		<layer id="181" name="Reshape_121634" type="Const" version="opset1">
			<data element_type="f32" shape="1, 16, 1, 1" offset="11636" size="64" />
			<output>
				<port id="0" precision="FP32">
					<dim>1</dim>
					<dim>16</dim>
					<dim>1</dim>
					<dim>1</dim>
				</port>
			</output>
		</layer>
		<layer id="182" name="/backbone/stage1/unit2/pw_conv/conv/Conv" type="Add" version="opset1">
			<data auto_broadcast="numpy" />
			<input>
				<port id="0" precision="FP32">
					<dim>1</dim>
					<dim>16</dim>
					<dim>512</dim>
					<dim>512</dim>
				</port>
				<port id="1" precision="FP32">
					<dim>1</dim>
					<dim>16</dim>
					<dim>1</dim>
					<dim>1</dim>
				</port>
			</input>
			<output>
				<port id="2" precision="FP32" names="/backbone/stage1/unit2/pw_conv/conv/Conv_output_0">
					<dim>1</dim>
					<dim>16</dim>
					<dim>512</dim>
					<dim>512</dim>
				</port>
			</output>
		</layer>
		<layer id="183" name="/backbone/stage1/unit2/Add" type="Add" version="opset1">
			<data auto_broadcast="numpy" />
			<input>
				<port id="0" precision="FP32">
					<dim>1</dim>
					<dim>16</dim>
					<dim>512</dim>
					<dim>512</dim>
				</port>
				<port id="1" precision="FP32">
					<dim>1</dim>
					<dim>16</dim>
					<dim>512</dim>
					<dim>512</dim>
				</port>
			</input>
			<output>
				<port id="2" precision="FP32" names="/backbone/stage1/unit2/Add_output_0">
					<dim>1</dim>
					<dim>16</dim>
					<dim>512</dim>
					<dim>512</dim>
				</port>
			</output>
		</layer>
		<layer id="184" name="onnx::Conv_3786" type="Const" version="opset1">
			<data element_type="f32" shape="96, 16, 1, 1" offset="11700" size="6144" />
			<output>
				<port id="0" precision="FP32" names="onnx::Conv_3786">
					<dim>96</dim>
					<dim>16</dim>
					<dim>1</dim>
					<dim>1</dim>
				</port>
			</output>
		</layer>
		<layer id="185" name="/backbone/stage2/unit1/conv1/conv/Conv/WithoutBiases" type="Convolution" version="opset1">
			<data strides="1, 1" dilations="1, 1" pads_begin="0, 0" pads_end="0, 0" auto_pad="explicit" />
			<input>
				<port id="0" precision="FP32">
					<dim>1</dim>
					<dim>16</dim>
					<dim>512</dim>
					<dim>512</dim>
				</port>
				<port id="1" precision="FP32">
					<dim>96</dim>
					<dim>16</dim>
					<dim>1</dim>
					<dim>1</dim>
				</port>
			</input>
			<output>
				<port id="2" precision="FP32">
					<dim>1</dim>
					<dim>96</dim>
					<dim>512</dim>
					<dim>512</dim>
				</port>
			</output>
		</layer>
		<layer id="186" name="Reshape_121651" type="Const" version="opset1">
			<data element_type="f32" shape="1, 96, 1, 1" offset="17844" size="384" />
			<output>
				<port id="0" precision="FP32">
					<dim>1</dim>
					<dim>96</dim>
					<dim>1</dim>
					<dim>1</dim>
				</port>
			</output>
		</layer>
		<layer id="187" name="/backbone/stage2/unit1/conv1/conv/Conv" type="Add" version="opset1">
			<data auto_broadcast="numpy" />
			<input>
				<port id="0" precision="FP32">
					<dim>1</dim>
					<dim>96</dim>
					<dim>512</dim>
					<dim>512</dim>
				</port>
				<port id="1" precision="FP32">
					<dim>1</dim>
					<dim>96</dim>
					<dim>1</dim>
					<dim>1</dim>
				</port>
			</input>
			<output>
				<port id="2" precision="FP32" names="/backbone/stage2/unit1/conv1/conv/Conv_output_0">
					<dim>1</dim>
					<dim>96</dim>
					<dim>512</dim>
					<dim>512</dim>
				</port>
			</output>
		</layer>
		<layer id="188" name="/backbone/stage2/unit1/conv1/activ/Mul" type="Swish" version="opset4">
			<input>
				<port id="0" precision="FP32">
					<dim>1</dim>
					<dim>96</dim>
					<dim>512</dim>
					<dim>512</dim>
				</port>
			</input>
			<output>
				<port id="1" precision="FP32" names="/backbone/stage2/unit1/conv1/activ/Mul_output_0">
					<dim>1</dim>
					<dim>96</dim>
					<dim>512</dim>
					<dim>512</dim>
				</port>
			</output>
		</layer>
		<layer id="189" name="/backbone/stage2/unit1/Constant_2" type="Const" version="opset1">
			<data element_type="i64" shape="" offset="18228" size="8" />
			<output>
				<port id="0" precision="I64" names="/backbone/stage2/unit1/Constant_2_output_0" />
			</output>
		</layer>
		<layer id="190" name="ShapeOf_211825" type="ShapeOf" version="opset3">
			<data output_type="i64" />
			<input>
				<port id="0" precision="FP32">
					<dim>1</dim>
					<dim>96</dim>
					<dim>512</dim>
					<dim>512</dim>
				</port>
			</input>
			<output>
				<port id="1" precision="I64">
					<dim>4</dim>
				</port>
			</output>
		</layer>
		<layer id="191" name="Constant_211826" type="Const" version="opset1">
			<data element_type="i64" shape="" offset="64" size="8" />
			<output>
				<port id="0" precision="I64" />
			</output>
		</layer>
		<layer id="192" name="Constant_211827" type="Const" version="opset1">
			<data element_type="i64" shape="" offset="0" size="8" />
			<output>
				<port id="0" precision="I64" />
			</output>
		</layer>
		<layer id="193" name="Gather_211828" type="Gather" version="opset8">
			<data batch_dims="0" />
			<input>
				<port id="0" precision="I64">
					<dim>4</dim>
				</port>
				<port id="1" precision="I64" />
				<port id="2" precision="I64" />
			</input>
			<output>
				<port id="3" precision="I64" names="/backbone/stage2/unit1/Gather_output_0" />
			</output>
		</layer>
		<layer id="194" name="/backbone/stage2/unit1/Sub" type="Subtract" version="opset1">
			<data auto_broadcast="numpy" />
			<input>
				<port id="0" precision="I64" />
				<port id="1" precision="I64" />
			</input>
			<output>
				<port id="2" precision="I64" names="/backbone/stage2/unit1/Sub_output_0" />
			</output>
		</layer>
		<layer id="195" name="/backbone/stage2/unit1/Constant_4" type="Const" version="opset1">
			<data element_type="i64" shape="" offset="64" size="8" />
			<output>
				<port id="0" precision="I64" names="/backbone/stage2/unit1/Constant_4_output_0" />
			</output>
		</layer>
		<layer id="196" name="/backbone/stage2/unit1/Div" type="Divide" version="opset1">
			<data auto_broadcast="numpy" m_pythondiv="true" />
			<input>
				<port id="0" precision="I64" />
				<port id="1" precision="I64" />
			</input>
			<output>
				<port id="2" precision="I64" names="/backbone/stage2/unit1/Cast_1_output_0,/backbone/stage2/unit1/Cast_output_0,/backbone/stage2/unit1/Div_output_0" />
			</output>
		</layer>
		<layer id="197" name="Constant_211830" type="Const" version="opset1">
			<data element_type="i64" shape="1" offset="72" size="8" />
			<output>
				<port id="0" precision="I64">
					<dim>1</dim>
				</port>
			</output>
		</layer>
		<layer id="198" name="Reshape_211831" type="Reshape" version="opset1">
			<data special_zero="false" />
			<input>
				<port id="0" precision="I64" />
				<port id="1" precision="I64">
					<dim>1</dim>
				</port>
			</input>
			<output>
				<port id="2" precision="I64" names="/backbone/stage2/unit1/Unsqueeze_4_output_0,/backbone/stage2/unit1/Unsqueeze_output_0">
					<dim>1</dim>
				</port>
			</output>
		</layer>
		<layer id="199" name="/backbone/stage2/unit1/Sub_2" type="Subtract" version="opset1">
			<data auto_broadcast="numpy" />
			<input>
				<port id="0" precision="I64" />
				<port id="1" precision="I64" />
			</input>
			<output>
				<port id="2" precision="I64" names="/backbone/stage2/unit1/Sub_2_output_0" />
			</output>
		</layer>
		<layer id="200" name="Constant_211931" type="Const" version="opset1">
			<data element_type="i64" shape="1" offset="72" size="8" />
			<output>
				<port id="0" precision="I64">
					<dim>1</dim>
				</port>
			</output>
		</layer>
		<layer id="201" name="Reshape_211932" type="Reshape" version="opset1">
			<data special_zero="false" />
			<input>
				<port id="0" precision="I64" />
				<port id="1" precision="I64">
					<dim>1</dim>
				</port>
			</input>
			<output>
				<port id="2" precision="I64" names="/backbone/stage2/unit1/Unsqueeze_1_output_0,/backbone/stage2/unit1/Unsqueeze_5_output_0">
					<dim>1</dim>
				</port>
			</output>
		</layer>
		<layer id="202" name="/backbone/stage2/unit1/Constant_3" type="Const" version="opset1">
			<data element_type="i64" shape="" offset="18228" size="8" />
			<output>
				<port id="0" precision="I64" names="/backbone/stage2/unit1/Constant_3_output_0" />
			</output>
		</layer>
		<layer id="203" name="Constant_212097" type="Const" version="opset1">
			<data element_type="i64" shape="" offset="80" size="8" />
			<output>
				<port id="0" precision="I64" />
			</output>
		</layer>
		<layer id="204" name="Constant_212098" type="Const" version="opset1">
			<data element_type="i64" shape="" offset="0" size="8" />
			<output>
				<port id="0" precision="I64" />
			</output>
		</layer>
		<layer id="205" name="Gather_212099" type="Gather" version="opset8">
			<data batch_dims="0" />
			<input>
				<port id="0" precision="I64">
					<dim>4</dim>
				</port>
				<port id="1" precision="I64" />
				<port id="2" precision="I64" />
			</input>
			<output>
				<port id="3" precision="I64" names="/backbone/stage2/unit1/Gather_1_output_0" />
			</output>
		</layer>
		<layer id="206" name="/backbone/stage2/unit1/Sub_1" type="Subtract" version="opset1">
			<data auto_broadcast="numpy" />
			<input>
				<port id="0" precision="I64" />
				<port id="1" precision="I64" />
			</input>
			<output>
				<port id="2" precision="I64" names="/backbone/stage2/unit1/Sub_1_output_0" />
			</output>
		</layer>
		<layer id="207" name="/backbone/stage2/unit1/Constant_5" type="Const" version="opset1">
			<data element_type="i64" shape="" offset="64" size="8" />
			<output>
				<port id="0" precision="I64" names="/backbone/stage2/unit1/Constant_5_output_0" />
			</output>
		</layer>
		<layer id="208" name="/backbone/stage2/unit1/Div_1" type="Divide" version="opset1">
			<data auto_broadcast="numpy" m_pythondiv="true" />
			<input>
				<port id="0" precision="I64" />
				<port id="1" precision="I64" />
			</input>
			<output>
				<port id="2" precision="I64" names="/backbone/stage2/unit1/Cast_2_output_0,/backbone/stage2/unit1/Cast_3_output_0,/backbone/stage2/unit1/Div_1_output_0" />
			</output>
		</layer>
		<layer id="209" name="Constant_212101" type="Const" version="opset1">
			<data element_type="i64" shape="1" offset="72" size="8" />
			<output>
				<port id="0" precision="I64">
					<dim>1</dim>
				</port>
			</output>
		</layer>
		<layer id="210" name="Reshape_212102" type="Reshape" version="opset1">
			<data special_zero="false" />
			<input>
				<port id="0" precision="I64" />
				<port id="1" precision="I64">
					<dim>1</dim>
				</port>
			</input>
			<output>
				<port id="2" precision="I64" names="/backbone/stage2/unit1/Unsqueeze_2_output_0,/backbone/stage2/unit1/Unsqueeze_6_output_0">
					<dim>1</dim>
				</port>
			</output>
		</layer>
		<layer id="211" name="/backbone/stage2/unit1/Sub_3" type="Subtract" version="opset1">
			<data auto_broadcast="numpy" />
			<input>
				<port id="0" precision="I64" />
				<port id="1" precision="I64" />
			</input>
			<output>
				<port id="2" precision="I64" names="/backbone/stage2/unit1/Sub_3_output_0" />
			</output>
		</layer>
		<layer id="212" name="Constant_212202" type="Const" version="opset1">
			<data element_type="i64" shape="1" offset="72" size="8" />
			<output>
				<port id="0" precision="I64">
					<dim>1</dim>
				</port>
			</output>
		</layer>
		<layer id="213" name="Reshape_212203" type="Reshape" version="opset1">
			<data special_zero="false" />
			<input>
				<port id="0" precision="I64" />
				<port id="1" precision="I64">
					<dim>1</dim>
				</port>
			</input>
			<output>
				<port id="2" precision="I64" names="/backbone/stage2/unit1/Unsqueeze_3_output_0,/backbone/stage2/unit1/Unsqueeze_7_output_0">
					<dim>1</dim>
				</port>
			</output>
		</layer>
		<layer id="214" name="/backbone/stage2/unit1/Concat" type="Concat" version="opset1">
			<data axis="0" />
			<input>
				<port id="0" precision="I64">
					<dim>1</dim>
				</port>
				<port id="1" precision="I64">
					<dim>1</dim>
				</port>
				<port id="2" precision="I64">
					<dim>1</dim>
				</port>
				<port id="3" precision="I64">
					<dim>1</dim>
				</port>
			</input>
			<output>
				<port id="4" precision="I64" names="/backbone/stage2/unit1/Cast_4_output_0,/backbone/stage2/unit1/Concat_1_output_0,/backbone/stage2/unit1/Concat_output_0">
					<dim>4</dim>
				</port>
			</output>
		</layer>
		<layer id="215" name="/backbone/stage2/unit1/ConstantOfShape" type="Const" version="opset1">
			<data element_type="i64" shape="4" offset="88" size="32" />
			<output>
				<port id="0" precision="I64" names="/backbone/stage2/unit1/ConstantOfShape_output_0">
					<dim>4</dim>
				</port>
			</output>
		</layer>
		<layer id="216" name="/backbone/stage2/unit1/Concat_2" type="Concat" version="opset1">
			<data axis="0" />
			<input>
				<port id="0" precision="I64">
					<dim>4</dim>
				</port>
				<port id="1" precision="I64">
					<dim>4</dim>
				</port>
			</input>
			<output>
				<port id="2" precision="I64" names="/backbone/stage2/unit1/Concat_2_output_0">
					<dim>8</dim>
				</port>
			</output>
		</layer>
		<layer id="217" name="/backbone/stage2/unit1/Constant_8" type="Const" version="opset1">
			<data element_type="i64" shape="2" offset="120" size="16" />
			<output>
				<port id="0" precision="I64" names="/backbone/stage2/unit1/Constant_8_output_0">
					<dim>2</dim>
				</port>
			</output>
		</layer>
		<layer id="218" name="/backbone/stage2/unit1/Reshape" type="Reshape" version="opset1">
			<data special_zero="true" />
			<input>
				<port id="0" precision="I64">
					<dim>8</dim>
				</port>
				<port id="1" precision="I64">
					<dim>2</dim>
				</port>
			</input>
			<output>
				<port id="2" precision="I64" names="/backbone/stage2/unit1/Reshape_output_0">
					<dim>4</dim>
					<dim>2</dim>
				</port>
			</output>
		</layer>
		<layer id="219" name="/backbone/stage2/unit1/Constant_10" type="Const" version="opset1">
			<data element_type="i64" shape="1" offset="136" size="8" />
			<output>
				<port id="0" precision="I64" names="/backbone/stage2/unit1/Constant_10_output_0">
					<dim>1</dim>
				</port>
			</output>
		</layer>
		<layer id="220" name="/backbone/stage2/unit1/Constant_11" type="Const" version="opset1">
			<data element_type="i64" shape="1" offset="144" size="8" />
			<output>
				<port id="0" precision="I64" names="/backbone/stage2/unit1/Constant_11_output_0">
					<dim>1</dim>
				</port>
			</output>
		</layer>
		<layer id="221" name="/backbone/stage2/unit1/Constant_12" type="Const" version="opset1">
			<data element_type="i64" shape="1" offset="136" size="8" />
			<output>
				<port id="0" precision="I64" names="/backbone/stage2/unit1/Constant_12_output_0">
					<dim>1</dim>
				</port>
			</output>
		</layer>
		<layer id="222" name="/backbone/stage2/unit1/Constant_9" type="Const" version="opset1">
			<data element_type="i64" shape="1" offset="0" size="8" />
			<output>
				<port id="0" precision="I64" names="/backbone/stage2/unit1/Constant_9_output_0">
					<dim>1</dim>
				</port>
			</output>
		</layer>
		<layer id="223" name="/backbone/stage2/unit1/Slice" type="Slice" version="opset8">
			<input>
				<port id="0" precision="I64">
					<dim>4</dim>
					<dim>2</dim>
				</port>
				<port id="1" precision="I64">
					<dim>1</dim>
				</port>
				<port id="2" precision="I64">
					<dim>1</dim>
				</port>
				<port id="3" precision="I64">
					<dim>1</dim>
				</port>
				<port id="4" precision="I64">
					<dim>1</dim>
				</port>
			</input>
			<output>
				<port id="5" precision="I64" names="/backbone/stage2/unit1/Slice_output_0">
					<dim>4</dim>
					<dim>2</dim>
				</port>
			</output>
		</layer>
		<layer id="224" name="Constant_121718" type="Const" version="opset1">
			<data element_type="i64" shape="2" offset="152" size="16" />
			<output>
				<port id="0" precision="I64">
					<dim>2</dim>
				</port>
			</output>
		</layer>
		<layer id="225" name="/backbone/stage2/unit1/Transpose" type="Transpose" version="opset1">
			<input>
				<port id="0" precision="I64">
					<dim>4</dim>
					<dim>2</dim>
				</port>
				<port id="1" precision="I64">
					<dim>2</dim>
				</port>
			</input>
			<output>
				<port id="2" precision="I64" names="/backbone/stage2/unit1/Transpose_output_0">
					<dim>2</dim>
					<dim>4</dim>
				</port>
			</output>
		</layer>
		<layer id="226" name="Constant_143674" type="Const" version="opset1">
			<data element_type="i64" shape="1" offset="136" size="8" />
			<output>
				<port id="0" precision="I64">
					<dim>1</dim>
				</port>
			</output>
		</layer>
		<layer id="227" name="/backbone/stage2/unit1/Reshape_1" type="Reshape" version="opset1">
			<data special_zero="true" />
			<input>
				<port id="0" precision="I64">
					<dim>2</dim>
					<dim>4</dim>
				</port>
				<port id="1" precision="I64">
					<dim>1</dim>
				</port>
			</input>
			<output>
				<port id="2" precision="I64" names="/backbone/stage2/unit1/Cast_5_output_0,/backbone/stage2/unit1/Reshape_1_output_0">
					<dim>8</dim>
				</port>
			</output>
		</layer>
		<layer id="228" name="Constant_121725" type="Const" version="opset1">
			<data element_type="i64" shape="" offset="0" size="8" />
			<output>
				<port id="0" precision="I64" />
			</output>
		</layer>
		<layer id="229" name="Split_121726" type="Split" version="opset1">
			<data num_splits="2" />
			<input>
				<port id="0" precision="I64">
					<dim>8</dim>
				</port>
				<port id="1" precision="I64" />
			</input>
			<output>
				<port id="2" precision="I64">
					<dim>4</dim>
				</port>
				<port id="3" precision="I64">
					<dim>4</dim>
				</port>
			</output>
		</layer>
		<layer id="230" name="Constant_121724" type="Const" version="opset1">
			<data element_type="f32" shape="" offset="168" size="4" />
			<output>
				<port id="0" precision="FP32" />
			</output>
		</layer>
		<layer id="231" name="/backbone/stage2/unit1/Pad" type="Pad" version="opset12">
			<data pad_mode="constant" />
			<input>
				<port id="0" precision="FP32">
					<dim>1</dim>
					<dim>96</dim>
					<dim>512</dim>
					<dim>512</dim>
				</port>
				<port id="1" precision="I64">
					<dim>4</dim>
				</port>
				<port id="2" precision="I64">
					<dim>4</dim>
				</port>
				<port id="3" precision="FP32" />
			</input>
			<output>
				<port id="4" precision="FP32" names="/backbone/stage2/unit1/Pad_output_0">
					<dim>1</dim>
					<dim>96</dim>
					<dim>513</dim>
					<dim>513</dim>
				</port>
			</output>
		</layer>
		<layer id="232" name="Reshape_121838" type="Const" version="opset1">
			<data element_type="f32" shape="96, 1, 1, 3, 3" offset="18236" size="3456" />
			<output>
				<port id="0" precision="FP32">
					<dim>96</dim>
					<dim>1</dim>
					<dim>1</dim>
					<dim>3</dim>
					<dim>3</dim>
				</port>
			</output>
		</layer>
		<layer id="233" name="/backbone/stage2/unit1/conv2/conv/Conv/WithoutBiases" type="GroupConvolution" version="opset1">
			<data strides="2, 2" pads_begin="0, 0" pads_end="0, 0" dilations="1, 1" auto_pad="explicit" />
			<input>
				<port id="0" precision="FP32">
					<dim>1</dim>
					<dim>96</dim>
					<dim>513</dim>
					<dim>513</dim>
				</port>
				<port id="1" precision="FP32">
					<dim>96</dim>
					<dim>1</dim>
					<dim>1</dim>
					<dim>3</dim>
					<dim>3</dim>
				</port>
			</input>
			<output>
				<port id="2" precision="FP32">
					<dim>1</dim>
					<dim>96</dim>
					<dim>256</dim>
					<dim>256</dim>
				</port>
			</output>
		</layer>
		<layer id="234" name="Reshape_121890" type="Const" version="opset1">
			<data element_type="f32" shape="1, 96, 1, 1" offset="21692" size="384" />
			<output>
				<port id="0" precision="FP32">
					<dim>1</dim>
					<dim>96</dim>
					<dim>1</dim>
					<dim>1</dim>
				</port>
			</output>
		</layer>
		<layer id="235" name="/backbone/stage2/unit1/conv2/conv/Conv" type="Add" version="opset1">
			<data auto_broadcast="numpy" />
			<input>
				<port id="0" precision="FP32">
					<dim>1</dim>
					<dim>96</dim>
					<dim>256</dim>
					<dim>256</dim>
				</port>
				<port id="1" precision="FP32">
					<dim>1</dim>
					<dim>96</dim>
					<dim>1</dim>
					<dim>1</dim>
				</port>
			</input>
			<output>
				<port id="2" precision="FP32" names="/backbone/stage2/unit1/conv2/conv/Conv_output_0">
					<dim>1</dim>
					<dim>96</dim>
					<dim>256</dim>
					<dim>256</dim>
				</port>
			</output>
		</layer>
		<layer id="236" name="/backbone/stage2/unit1/conv2/activ/Mul" type="Swish" version="opset4">
			<input>
				<port id="0" precision="FP32">
					<dim>1</dim>
					<dim>96</dim>
					<dim>256</dim>
					<dim>256</dim>
				</port>
			</input>
			<output>
				<port id="1" precision="FP32" names="/backbone/stage2/unit1/conv2/activ/Mul_output_0">
					<dim>1</dim>
					<dim>96</dim>
					<dim>256</dim>
					<dim>256</dim>
				</port>
			</output>
		</layer>
		<layer id="237" name="Range_121902" type="Const" version="opset1">
			<data element_type="i64" shape="2" offset="5044" size="16" />
			<output>
				<port id="0" precision="I64">
					<dim>2</dim>
				</port>
			</output>
		</layer>
		<layer id="238" name="/backbone/stage2/unit1/se/pool/GlobalAveragePool" type="ReduceMean" version="opset1">
			<data keep_dims="true" />
			<input>
				<port id="0" precision="FP32">
					<dim>1</dim>
					<dim>96</dim>
					<dim>256</dim>
					<dim>256</dim>
				</port>
				<port id="1" precision="I64">
					<dim>2</dim>
				</port>
			</input>
			<output>
				<port id="2" precision="FP32" names="/backbone/stage2/unit1/se/pool/GlobalAveragePool_output_0">
					<dim>1</dim>
					<dim>96</dim>
					<dim>1</dim>
					<dim>1</dim>
				</port>
			</output>
		</layer>
		<layer id="239" name="model.backbone.features.stage2.unit1.se.conv1.weight" type="Const" version="opset1">
			<data element_type="f32" shape="4, 96, 1, 1" offset="22076" size="1536" />
			<output>
				<port id="0" precision="FP32" names="model.backbone.features.stage2.unit1.se.conv1.weight">
					<dim>4</dim>
					<dim>96</dim>
					<dim>1</dim>
					<dim>1</dim>
				</port>
			</output>
		</layer>
		<layer id="240" name="/backbone/stage2/unit1/se/conv1/Conv/WithoutBiases" type="Convolution" version="opset1">
			<data strides="1, 1" dilations="1, 1" pads_begin="0, 0" pads_end="0, 0" auto_pad="explicit" />
			<input>
				<port id="0" precision="FP32">
					<dim>1</dim>
					<dim>96</dim>
					<dim>1</dim>
					<dim>1</dim>
				</port>
				<port id="1" precision="FP32">
					<dim>4</dim>
					<dim>96</dim>
					<dim>1</dim>
					<dim>1</dim>
				</port>
			</input>
			<output>
				<port id="2" precision="FP32">
					<dim>1</dim>
					<dim>4</dim>
					<dim>1</dim>
					<dim>1</dim>
				</port>
			</output>
		</layer>
		<layer id="241" name="Reshape_121920" type="Const" version="opset1">
			<data element_type="f32" shape="1, 4, 1, 1" offset="23612" size="16" />
			<output>
				<port id="0" precision="FP32">
					<dim>1</dim>
					<dim>4</dim>
					<dim>1</dim>
					<dim>1</dim>
				</port>
			</output>
		</layer>
		<layer id="242" name="/backbone/stage2/unit1/se/conv1/Conv" type="Add" version="opset1">
			<data auto_broadcast="numpy" />
			<input>
				<port id="0" precision="FP32">
					<dim>1</dim>
					<dim>4</dim>
					<dim>1</dim>
					<dim>1</dim>
				</port>
				<port id="1" precision="FP32">
					<dim>1</dim>
					<dim>4</dim>
					<dim>1</dim>
					<dim>1</dim>
				</port>
			</input>
			<output>
				<port id="2" precision="FP32" names="/backbone/stage2/unit1/se/conv1/Conv_output_0">
					<dim>1</dim>
					<dim>4</dim>
					<dim>1</dim>
					<dim>1</dim>
				</port>
			</output>
		</layer>
		<layer id="243" name="/backbone/stage2/unit1/se/activ/Mul" type="Swish" version="opset4">
			<input>
				<port id="0" precision="FP32">
					<dim>1</dim>
					<dim>4</dim>
					<dim>1</dim>
					<dim>1</dim>
				</port>
			</input>
			<output>
				<port id="1" precision="FP32" names="/backbone/stage2/unit1/se/activ/Mul_output_0">
					<dim>1</dim>
					<dim>4</dim>
					<dim>1</dim>
					<dim>1</dim>
				</port>
			</output>
		</layer>
		<layer id="244" name="model.backbone.features.stage2.unit1.se.conv2.weight" type="Const" version="opset1">
			<data element_type="f32" shape="96, 4, 1, 1" offset="23628" size="1536" />
			<output>
				<port id="0" precision="FP32" names="model.backbone.features.stage2.unit1.se.conv2.weight">
					<dim>96</dim>
					<dim>4</dim>
					<dim>1</dim>
					<dim>1</dim>
				</port>
			</output>
		</layer>
		<layer id="245" name="/backbone/stage2/unit1/se/conv2/Conv/WithoutBiases" type="Convolution" version="opset1">
			<data strides="1, 1" dilations="1, 1" pads_begin="0, 0" pads_end="0, 0" auto_pad="explicit" />
			<input>
				<port id="0" precision="FP32">
					<dim>1</dim>
					<dim>4</dim>
					<dim>1</dim>
					<dim>1</dim>
				</port>
				<port id="1" precision="FP32">
					<dim>96</dim>
					<dim>4</dim>
					<dim>1</dim>
					<dim>1</dim>
				</port>
			</input>
			<output>
				<port id="2" precision="FP32">
					<dim>1</dim>
					<dim>96</dim>
					<dim>1</dim>
					<dim>1</dim>
				</port>
			</output>
		</layer>
		<layer id="246" name="Reshape_121938" type="Const" version="opset1">
			<data element_type="f32" shape="1, 96, 1, 1" offset="25164" size="384" />
			<output>
				<port id="0" precision="FP32">
					<dim>1</dim>
					<dim>96</dim>
					<dim>1</dim>
					<dim>1</dim>
				</port>
			</output>
		</layer>
		<layer id="247" name="/backbone/stage2/unit1/se/conv2/Conv" type="Add" version="opset1">
			<data auto_broadcast="numpy" />
			<input>
				<port id="0" precision="FP32">
					<dim>1</dim>
					<dim>96</dim>
					<dim>1</dim>
					<dim>1</dim>
				</port>
				<port id="1" precision="FP32">
					<dim>1</dim>
					<dim>96</dim>
					<dim>1</dim>
					<dim>1</dim>
				</port>
			</input>
			<output>
				<port id="2" precision="FP32" names="/backbone/stage2/unit1/se/conv2/Conv_output_0">
					<dim>1</dim>
					<dim>96</dim>
					<dim>1</dim>
					<dim>1</dim>
				</port>
			</output>
		</layer>
		<layer id="248" name="/backbone/stage2/unit1/se/sigmoid/Sigmoid" type="Sigmoid" version="opset1">
			<input>
				<port id="0" precision="FP32">
					<dim>1</dim>
					<dim>96</dim>
					<dim>1</dim>
					<dim>1</dim>
				</port>
			</input>
			<output>
				<port id="1" precision="FP32" names="/backbone/stage2/unit1/se/sigmoid/Sigmoid_output_0">
					<dim>1</dim>
					<dim>96</dim>
					<dim>1</dim>
					<dim>1</dim>
				</port>
			</output>
		</layer>
		<layer id="249" name="/backbone/stage2/unit1/se/Mul" type="Multiply" version="opset1">
			<data auto_broadcast="numpy" />
			<input>
				<port id="0" precision="FP32">
					<dim>1</dim>
					<dim>96</dim>
					<dim>256</dim>
					<dim>256</dim>
				</port>
				<port id="1" precision="FP32">
					<dim>1</dim>
					<dim>96</dim>
					<dim>1</dim>
					<dim>1</dim>
				</port>
			</input>
			<output>
				<port id="2" precision="FP32" names="/backbone/stage2/unit1/se/Mul_output_0">
					<dim>1</dim>
					<dim>96</dim>
					<dim>256</dim>
					<dim>256</dim>
				</port>
			</output>
		</layer>
		<layer id="250" name="onnx::Conv_3792" type="Const" version="opset1">
			<data element_type="f32" shape="24, 96, 1, 1" offset="25548" size="9216" />
			<output>
				<port id="0" precision="FP32" names="onnx::Conv_3792">
					<dim>24</dim>
					<dim>96</dim>
					<dim>1</dim>
					<dim>1</dim>
				</port>
			</output>
		</layer>
		<layer id="251" name="/backbone/stage2/unit1/conv3/conv/Conv/WithoutBiases" type="Convolution" version="opset1">
			<data strides="1, 1" dilations="1, 1" pads_begin="0, 0" pads_end="0, 0" auto_pad="explicit" />
			<input>
				<port id="0" precision="FP32">
					<dim>1</dim>
					<dim>96</dim>
					<dim>256</dim>
					<dim>256</dim>
				</port>
				<port id="1" precision="FP32">
					<dim>24</dim>
					<dim>96</dim>
					<dim>1</dim>
					<dim>1</dim>
				</port>
			</input>
			<output>
				<port id="2" precision="FP32">
					<dim>1</dim>
					<dim>24</dim>
					<dim>256</dim>
					<dim>256</dim>
				</port>
			</output>
		</layer>
		<layer id="252" name="Reshape_121956" type="Const" version="opset1">
			<data element_type="f32" shape="1, 24, 1, 1" offset="34764" size="96" />
			<output>
				<port id="0" precision="FP32">
					<dim>1</dim>
					<dim>24</dim>
					<dim>1</dim>
					<dim>1</dim>
				</port>
			</output>
		</layer>
		<layer id="253" name="/backbone/stage2/unit1/conv3/conv/Conv" type="Add" version="opset1">
			<data auto_broadcast="numpy" />
			<input>
				<port id="0" precision="FP32">
					<dim>1</dim>
					<dim>24</dim>
					<dim>256</dim>
					<dim>256</dim>
				</port>
				<port id="1" precision="FP32">
					<dim>1</dim>
					<dim>24</dim>
					<dim>1</dim>
					<dim>1</dim>
				</port>
			</input>
			<output>
				<port id="2" precision="FP32" names="/backbone/stage2/unit1/conv3/conv/Conv_output_0">
					<dim>1</dim>
					<dim>24</dim>
					<dim>256</dim>
					<dim>256</dim>
				</port>
			</output>
		</layer>
		<layer id="254" name="onnx::Conv_3795" type="Const" version="opset1">
			<data element_type="f32" shape="144, 24, 1, 1" offset="34860" size="13824" />
			<output>
				<port id="0" precision="FP32" names="onnx::Conv_3795">
					<dim>144</dim>
					<dim>24</dim>
					<dim>1</dim>
					<dim>1</dim>
				</port>
			</output>
		</layer>
		<layer id="255" name="/backbone/stage2/unit2/conv1/conv/Conv/WithoutBiases" type="Convolution" version="opset1">
			<data strides="1, 1" dilations="1, 1" pads_begin="0, 0" pads_end="0, 0" auto_pad="explicit" />
			<input>
				<port id="0" precision="FP32">
					<dim>1</dim>
					<dim>24</dim>
					<dim>256</dim>
					<dim>256</dim>
				</port>
				<port id="1" precision="FP32">
					<dim>144</dim>
					<dim>24</dim>
					<dim>1</dim>
					<dim>1</dim>
				</port>
			</input>
			<output>
				<port id="2" precision="FP32">
					<dim>1</dim>
					<dim>144</dim>
					<dim>256</dim>
					<dim>256</dim>
				</port>
			</output>
		</layer>
		<layer id="256" name="Reshape_121972" type="Const" version="opset1">
			<data element_type="f32" shape="1, 144, 1, 1" offset="48684" size="576" />
			<output>
				<port id="0" precision="FP32">
					<dim>1</dim>
					<dim>144</dim>
					<dim>1</dim>
					<dim>1</dim>
				</port>
			</output>
		</layer>
		<layer id="257" name="/backbone/stage2/unit2/conv1/conv/Conv" type="Add" version="opset1">
			<data auto_broadcast="numpy" />
			<input>
				<port id="0" precision="FP32">
					<dim>1</dim>
					<dim>144</dim>
					<dim>256</dim>
					<dim>256</dim>
				</port>
				<port id="1" precision="FP32">
					<dim>1</dim>
					<dim>144</dim>
					<dim>1</dim>
					<dim>1</dim>
				</port>
			</input>
			<output>
				<port id="2" precision="FP32" names="/backbone/stage2/unit2/conv1/conv/Conv_output_0">
					<dim>1</dim>
					<dim>144</dim>
					<dim>256</dim>
					<dim>256</dim>
				</port>
			</output>
		</layer>
		<layer id="258" name="/backbone/stage2/unit2/conv1/activ/Mul" type="Swish" version="opset4">
			<input>
				<port id="0" precision="FP32">
					<dim>1</dim>
					<dim>144</dim>
					<dim>256</dim>
					<dim>256</dim>
				</port>
			</input>
			<output>
				<port id="1" precision="FP32" names="/backbone/stage2/unit2/conv1/activ/Mul_output_0">
					<dim>1</dim>
					<dim>144</dim>
					<dim>256</dim>
					<dim>256</dim>
				</port>
			</output>
		</layer>
		<layer id="259" name="/backbone/stage2/unit2/Constant_2" type="Const" version="opset1">
			<data element_type="i64" shape="" offset="49260" size="8" />
			<output>
				<port id="0" precision="I64" names="/backbone/stage2/unit2/Constant_2_output_0" />
			</output>
		</layer>
		<layer id="260" name="ShapeOf_212367" type="ShapeOf" version="opset3">
			<data output_type="i64" />
			<input>
				<port id="0" precision="FP32">
					<dim>1</dim>
					<dim>144</dim>
					<dim>256</dim>
					<dim>256</dim>
				</port>
			</input>
			<output>
				<port id="1" precision="I64">
					<dim>4</dim>
				</port>
			</output>
		</layer>
		<layer id="261" name="Constant_212368" type="Const" version="opset1">
			<data element_type="i64" shape="" offset="64" size="8" />
			<output>
				<port id="0" precision="I64" />
			</output>
		</layer>
		<layer id="262" name="Constant_212369" type="Const" version="opset1">
			<data element_type="i64" shape="" offset="0" size="8" />
			<output>
				<port id="0" precision="I64" />
			</output>
		</layer>
		<layer id="263" name="Gather_212370" type="Gather" version="opset8">
			<data batch_dims="0" />
			<input>
				<port id="0" precision="I64">
					<dim>4</dim>
				</port>
				<port id="1" precision="I64" />
				<port id="2" precision="I64" />
			</input>
			<output>
				<port id="3" precision="I64" names="/backbone/stage2/unit2/Gather_output_0" />
			</output>
		</layer>
		<layer id="264" name="/backbone/stage2/unit2/Sub" type="Subtract" version="opset1">
			<data auto_broadcast="numpy" />
			<input>
				<port id="0" precision="I64" />
				<port id="1" precision="I64" />
			</input>
			<output>
				<port id="2" precision="I64" names="/backbone/stage2/unit2/Sub_output_0" />
			</output>
		</layer>
		<layer id="265" name="/backbone/stage2/unit2/Constant_4" type="Const" version="opset1">
			<data element_type="i64" shape="" offset="64" size="8" />
			<output>
				<port id="0" precision="I64" names="/backbone/stage2/unit2/Constant_4_output_0" />
			</output>
		</layer>
		<layer id="266" name="/backbone/stage2/unit2/Div" type="Divide" version="opset1">
			<data auto_broadcast="numpy" m_pythondiv="true" />
			<input>
				<port id="0" precision="I64" />
				<port id="1" precision="I64" />
			</input>
			<output>
				<port id="2" precision="I64" names="/backbone/stage2/unit2/Cast_1_output_0,/backbone/stage2/unit2/Cast_output_0,/backbone/stage2/unit2/Div_output_0" />
			</output>
		</layer>
		<layer id="267" name="Constant_212372" type="Const" version="opset1">
			<data element_type="i64" shape="1" offset="72" size="8" />
			<output>
				<port id="0" precision="I64">
					<dim>1</dim>
				</port>
			</output>
		</layer>
		<layer id="268" name="Reshape_212373" type="Reshape" version="opset1">
			<data special_zero="false" />
			<input>
				<port id="0" precision="I64" />
				<port id="1" precision="I64">
					<dim>1</dim>
				</port>
			</input>
			<output>
				<port id="2" precision="I64" names="/backbone/stage2/unit2/Unsqueeze_4_output_0,/backbone/stage2/unit2/Unsqueeze_output_0">
					<dim>1</dim>
				</port>
			</output>
		</layer>
		<layer id="269" name="/backbone/stage2/unit2/Sub_2" type="Subtract" version="opset1">
			<data auto_broadcast="numpy" />
			<input>
				<port id="0" precision="I64" />
				<port id="1" precision="I64" />
			</input>
			<output>
				<port id="2" precision="I64" names="/backbone/stage2/unit2/Sub_2_output_0" />
			</output>
		</layer>
		<layer id="270" name="Constant_212473" type="Const" version="opset1">
			<data element_type="i64" shape="1" offset="72" size="8" />
			<output>
				<port id="0" precision="I64">
					<dim>1</dim>
				</port>
			</output>
		</layer>
		<layer id="271" name="Reshape_212474" type="Reshape" version="opset1">
			<data special_zero="false" />
			<input>
				<port id="0" precision="I64" />
				<port id="1" precision="I64">
					<dim>1</dim>
				</port>
			</input>
			<output>
				<port id="2" precision="I64" names="/backbone/stage2/unit2/Unsqueeze_1_output_0,/backbone/stage2/unit2/Unsqueeze_5_output_0">
					<dim>1</dim>
				</port>
			</output>
		</layer>
		<layer id="272" name="/backbone/stage2/unit2/Constant_3" type="Const" version="opset1">
			<data element_type="i64" shape="" offset="49260" size="8" />
			<output>
				<port id="0" precision="I64" names="/backbone/stage2/unit2/Constant_3_output_0" />
			</output>
		</layer>
		<layer id="273" name="Constant_212639" type="Const" version="opset1">
			<data element_type="i64" shape="" offset="80" size="8" />
			<output>
				<port id="0" precision="I64" />
			</output>
		</layer>
		<layer id="274" name="Constant_212640" type="Const" version="opset1">
			<data element_type="i64" shape="" offset="0" size="8" />
			<output>
				<port id="0" precision="I64" />
			</output>
		</layer>
		<layer id="275" name="Gather_212641" type="Gather" version="opset8">
			<data batch_dims="0" />
			<input>
				<port id="0" precision="I64">
					<dim>4</dim>
				</port>
				<port id="1" precision="I64" />
				<port id="2" precision="I64" />
			</input>
			<output>
				<port id="3" precision="I64" names="/backbone/stage2/unit2/Gather_1_output_0" />
			</output>
		</layer>
		<layer id="276" name="/backbone/stage2/unit2/Sub_1" type="Subtract" version="opset1">
			<data auto_broadcast="numpy" />
			<input>
				<port id="0" precision="I64" />
				<port id="1" precision="I64" />
			</input>
			<output>
				<port id="2" precision="I64" names="/backbone/stage2/unit2/Sub_1_output_0" />
			</output>
		</layer>
		<layer id="277" name="/backbone/stage2/unit2/Constant_5" type="Const" version="opset1">
			<data element_type="i64" shape="" offset="64" size="8" />
			<output>
				<port id="0" precision="I64" names="/backbone/stage2/unit2/Constant_5_output_0" />
			</output>
		</layer>
		<layer id="278" name="/backbone/stage2/unit2/Div_1" type="Divide" version="opset1">
			<data auto_broadcast="numpy" m_pythondiv="true" />
			<input>
				<port id="0" precision="I64" />
				<port id="1" precision="I64" />
			</input>
			<output>
				<port id="2" precision="I64" names="/backbone/stage2/unit2/Cast_2_output_0,/backbone/stage2/unit2/Cast_3_output_0,/backbone/stage2/unit2/Div_1_output_0" />
			</output>
		</layer>
		<layer id="279" name="Constant_212643" type="Const" version="opset1">
			<data element_type="i64" shape="1" offset="72" size="8" />
			<output>
				<port id="0" precision="I64">
					<dim>1</dim>
				</port>
			</output>
		</layer>
		<layer id="280" name="Reshape_212644" type="Reshape" version="opset1">
			<data special_zero="false" />
			<input>
				<port id="0" precision="I64" />
				<port id="1" precision="I64">
					<dim>1</dim>
				</port>
			</input>
			<output>
				<port id="2" precision="I64" names="/backbone/stage2/unit2/Unsqueeze_2_output_0,/backbone/stage2/unit2/Unsqueeze_6_output_0">
					<dim>1</dim>
				</port>
			</output>
		</layer>
		<layer id="281" name="/backbone/stage2/unit2/Sub_3" type="Subtract" version="opset1">
			<data auto_broadcast="numpy" />
			<input>
				<port id="0" precision="I64" />
				<port id="1" precision="I64" />
			</input>
			<output>
				<port id="2" precision="I64" names="/backbone/stage2/unit2/Sub_3_output_0" />
			</output>
		</layer>
		<layer id="282" name="Constant_212744" type="Const" version="opset1">
			<data element_type="i64" shape="1" offset="72" size="8" />
			<output>
				<port id="0" precision="I64">
					<dim>1</dim>
				</port>
			</output>
		</layer>
		<layer id="283" name="Reshape_212745" type="Reshape" version="opset1">
			<data special_zero="false" />
			<input>
				<port id="0" precision="I64" />
				<port id="1" precision="I64">
					<dim>1</dim>
				</port>
			</input>
			<output>
				<port id="2" precision="I64" names="/backbone/stage2/unit2/Unsqueeze_3_output_0,/backbone/stage2/unit2/Unsqueeze_7_output_0">
					<dim>1</dim>
				</port>
			</output>
		</layer>
		<layer id="284" name="/backbone/stage2/unit2/Concat" type="Concat" version="opset1">
			<data axis="0" />
			<input>
				<port id="0" precision="I64">
					<dim>1</dim>
				</port>
				<port id="1" precision="I64">
					<dim>1</dim>
				</port>
				<port id="2" precision="I64">
					<dim>1</dim>
				</port>
				<port id="3" precision="I64">
					<dim>1</dim>
				</port>
			</input>
			<output>
				<port id="4" precision="I64" names="/backbone/stage2/unit2/Cast_4_output_0,/backbone/stage2/unit2/Concat_1_output_0,/backbone/stage2/unit2/Concat_output_0">
					<dim>4</dim>
				</port>
			</output>
		</layer>
		<layer id="285" name="/backbone/stage2/unit2/ConstantOfShape" type="Const" version="opset1">
			<data element_type="i64" shape="4" offset="88" size="32" />
			<output>
				<port id="0" precision="I64" names="/backbone/stage2/unit2/ConstantOfShape_output_0">
					<dim>4</dim>
				</port>
			</output>
		</layer>
		<layer id="286" name="/backbone/stage2/unit2/Concat_2" type="Concat" version="opset1">
			<data axis="0" />
			<input>
				<port id="0" precision="I64">
					<dim>4</dim>
				</port>
				<port id="1" precision="I64">
					<dim>4</dim>
				</port>
			</input>
			<output>
				<port id="2" precision="I64" names="/backbone/stage2/unit2/Concat_2_output_0">
					<dim>8</dim>
				</port>
			</output>
		</layer>
		<layer id="287" name="/backbone/stage2/unit2/Constant_8" type="Const" version="opset1">
			<data element_type="i64" shape="2" offset="120" size="16" />
			<output>
				<port id="0" precision="I64" names="/backbone/stage2/unit2/Constant_8_output_0">
					<dim>2</dim>
				</port>
			</output>
		</layer>
		<layer id="288" name="/backbone/stage2/unit2/Reshape" type="Reshape" version="opset1">
			<data special_zero="true" />
			<input>
				<port id="0" precision="I64">
					<dim>8</dim>
				</port>
				<port id="1" precision="I64">
					<dim>2</dim>
				</port>
			</input>
			<output>
				<port id="2" precision="I64" names="/backbone/stage2/unit2/Reshape_output_0">
					<dim>4</dim>
					<dim>2</dim>
				</port>
			</output>
		</layer>
		<layer id="289" name="/backbone/stage2/unit2/Constant_10" type="Const" version="opset1">
			<data element_type="i64" shape="1" offset="136" size="8" />
			<output>
				<port id="0" precision="I64" names="/backbone/stage2/unit2/Constant_10_output_0">
					<dim>1</dim>
				</port>
			</output>
		</layer>
		<layer id="290" name="/backbone/stage2/unit2/Constant_11" type="Const" version="opset1">
			<data element_type="i64" shape="1" offset="144" size="8" />
			<output>
				<port id="0" precision="I64" names="/backbone/stage2/unit2/Constant_11_output_0">
					<dim>1</dim>
				</port>
			</output>
		</layer>
		<layer id="291" name="/backbone/stage2/unit2/Constant_12" type="Const" version="opset1">
			<data element_type="i64" shape="1" offset="136" size="8" />
			<output>
				<port id="0" precision="I64" names="/backbone/stage2/unit2/Constant_12_output_0">
					<dim>1</dim>
				</port>
			</output>
		</layer>
		<layer id="292" name="/backbone/stage2/unit2/Constant_9" type="Const" version="opset1">
			<data element_type="i64" shape="1" offset="0" size="8" />
			<output>
				<port id="0" precision="I64" names="/backbone/stage2/unit2/Constant_9_output_0">
					<dim>1</dim>
				</port>
			</output>
		</layer>
		<layer id="293" name="/backbone/stage2/unit2/Slice" type="Slice" version="opset8">
			<input>
				<port id="0" precision="I64">
					<dim>4</dim>
					<dim>2</dim>
				</port>
				<port id="1" precision="I64">
					<dim>1</dim>
				</port>
				<port id="2" precision="I64">
					<dim>1</dim>
				</port>
				<port id="3" precision="I64">
					<dim>1</dim>
				</port>
				<port id="4" precision="I64">
					<dim>1</dim>
				</port>
			</input>
			<output>
				<port id="5" precision="I64" names="/backbone/stage2/unit2/Slice_output_0">
					<dim>4</dim>
					<dim>2</dim>
				</port>
			</output>
		</layer>
		<layer id="294" name="Constant_122039" type="Const" version="opset1">
			<data element_type="i64" shape="2" offset="152" size="16" />
			<output>
				<port id="0" precision="I64">
					<dim>2</dim>
				</port>
			</output>
		</layer>
		<layer id="295" name="/backbone/stage2/unit2/Transpose" type="Transpose" version="opset1">
			<input>
				<port id="0" precision="I64">
					<dim>4</dim>
					<dim>2</dim>
				</port>
				<port id="1" precision="I64">
					<dim>2</dim>
				</port>
			</input>
			<output>
				<port id="2" precision="I64" names="/backbone/stage2/unit2/Transpose_output_0">
					<dim>2</dim>
					<dim>4</dim>
				</port>
			</output>
		</layer>
		<layer id="296" name="Constant_143675" type="Const" version="opset1">
			<data element_type="i64" shape="1" offset="136" size="8" />
			<output>
				<port id="0" precision="I64">
					<dim>1</dim>
				</port>
			</output>
		</layer>
		<layer id="297" name="/backbone/stage2/unit2/Reshape_1" type="Reshape" version="opset1">
			<data special_zero="true" />
			<input>
				<port id="0" precision="I64">
					<dim>2</dim>
					<dim>4</dim>
				</port>
				<port id="1" precision="I64">
					<dim>1</dim>
				</port>
			</input>
			<output>
				<port id="2" precision="I64" names="/backbone/stage2/unit2/Cast_5_output_0,/backbone/stage2/unit2/Reshape_1_output_0">
					<dim>8</dim>
				</port>
			</output>
		</layer>
		<layer id="298" name="Constant_122046" type="Const" version="opset1">
			<data element_type="i64" shape="" offset="0" size="8" />
			<output>
				<port id="0" precision="I64" />
			</output>
		</layer>
		<layer id="299" name="Split_122047" type="Split" version="opset1">
			<data num_splits="2" />
			<input>
				<port id="0" precision="I64">
					<dim>8</dim>
				</port>
				<port id="1" precision="I64" />
			</input>
			<output>
				<port id="2" precision="I64">
					<dim>4</dim>
				</port>
				<port id="3" precision="I64">
					<dim>4</dim>
				</port>
			</output>
		</layer>
		<layer id="300" name="Constant_122045" type="Const" version="opset1">
			<data element_type="f32" shape="" offset="168" size="4" />
			<output>
				<port id="0" precision="FP32" />
			</output>
		</layer>
		<layer id="301" name="/backbone/stage2/unit2/Pad" type="Pad" version="opset12">
			<data pad_mode="constant" />
			<input>
				<port id="0" precision="FP32">
					<dim>1</dim>
					<dim>144</dim>
					<dim>256</dim>
					<dim>256</dim>
				</port>
				<port id="1" precision="I64">
					<dim>4</dim>
				</port>
				<port id="2" precision="I64">
					<dim>4</dim>
				</port>
				<port id="3" precision="FP32" />
			</input>
			<output>
				<port id="4" precision="FP32" names="/backbone/stage2/unit2/Pad_output_0">
					<dim>1</dim>
					<dim>144</dim>
					<dim>258</dim>
					<dim>258</dim>
				</port>
			</output>
		</layer>
		<layer id="302" name="Reshape_122159" type="Const" version="opset1">
			<data element_type="f32" shape="144, 1, 1, 3, 3" offset="49268" size="5184" />
			<output>
				<port id="0" precision="FP32">
					<dim>144</dim>
					<dim>1</dim>
					<dim>1</dim>
					<dim>3</dim>
					<dim>3</dim>
				</port>
			</output>
		</layer>
		<layer id="303" name="/backbone/stage2/unit2/conv2/conv/Conv/WithoutBiases" type="GroupConvolution" version="opset1">
			<data strides="1, 1" pads_begin="0, 0" pads_end="0, 0" dilations="1, 1" auto_pad="explicit" />
			<input>
				<port id="0" precision="FP32">
					<dim>1</dim>
					<dim>144</dim>
					<dim>258</dim>
					<dim>258</dim>
				</port>
				<port id="1" precision="FP32">
					<dim>144</dim>
					<dim>1</dim>
					<dim>1</dim>
					<dim>3</dim>
					<dim>3</dim>
				</port>
			</input>
			<output>
				<port id="2" precision="FP32">
					<dim>1</dim>
					<dim>144</dim>
					<dim>256</dim>
					<dim>256</dim>
				</port>
			</output>
		</layer>
		<layer id="304" name="Reshape_122211" type="Const" version="opset1">
			<data element_type="f32" shape="1, 144, 1, 1" offset="54452" size="576" />
			<output>
				<port id="0" precision="FP32">
					<dim>1</dim>
					<dim>144</dim>
					<dim>1</dim>
					<dim>1</dim>
				</port>
			</output>
		</layer>
		<layer id="305" name="/backbone/stage2/unit2/conv2/conv/Conv" type="Add" version="opset1">
			<data auto_broadcast="numpy" />
			<input>
				<port id="0" precision="FP32">
					<dim>1</dim>
					<dim>144</dim>
					<dim>256</dim>
					<dim>256</dim>
				</port>
				<port id="1" precision="FP32">
					<dim>1</dim>
					<dim>144</dim>
					<dim>1</dim>
					<dim>1</dim>
				</port>
			</input>
			<output>
				<port id="2" precision="FP32" names="/backbone/stage2/unit2/conv2/conv/Conv_output_0">
					<dim>1</dim>
					<dim>144</dim>
					<dim>256</dim>
					<dim>256</dim>
				</port>
			</output>
		</layer>
		<layer id="306" name="/backbone/stage2/unit2/conv2/activ/Mul" type="Swish" version="opset4">
			<input>
				<port id="0" precision="FP32">
					<dim>1</dim>
					<dim>144</dim>
					<dim>256</dim>
					<dim>256</dim>
				</port>
			</input>
			<output>
				<port id="1" precision="FP32" names="/backbone/stage2/unit2/conv2/activ/Mul_output_0">
					<dim>1</dim>
					<dim>144</dim>
					<dim>256</dim>
					<dim>256</dim>
				</port>
			</output>
		</layer>
		<layer id="307" name="Range_122223" type="Const" version="opset1">
			<data element_type="i64" shape="2" offset="5044" size="16" />
			<output>
				<port id="0" precision="I64">
					<dim>2</dim>
				</port>
			</output>
		</layer>
		<layer id="308" name="/backbone/stage2/unit2/se/pool/GlobalAveragePool" type="ReduceMean" version="opset1">
			<data keep_dims="true" />
			<input>
				<port id="0" precision="FP32">
					<dim>1</dim>
					<dim>144</dim>
					<dim>256</dim>
					<dim>256</dim>
				</port>
				<port id="1" precision="I64">
					<dim>2</dim>
				</port>
			</input>
			<output>
				<port id="2" precision="FP32" names="/backbone/stage2/unit2/se/pool/GlobalAveragePool_output_0">
					<dim>1</dim>
					<dim>144</dim>
					<dim>1</dim>
					<dim>1</dim>
				</port>
			</output>
		</layer>
		<layer id="309" name="model.backbone.features.stage2.unit2.se.conv1.weight" type="Const" version="opset1">
			<data element_type="f32" shape="6, 144, 1, 1" offset="55028" size="3456" />
			<output>
				<port id="0" precision="FP32" names="model.backbone.features.stage2.unit2.se.conv1.weight">
					<dim>6</dim>
					<dim>144</dim>
					<dim>1</dim>
					<dim>1</dim>
				</port>
			</output>
		</layer>
		<layer id="310" name="/backbone/stage2/unit2/se/conv1/Conv/WithoutBiases" type="Convolution" version="opset1">
			<data strides="1, 1" dilations="1, 1" pads_begin="0, 0" pads_end="0, 0" auto_pad="explicit" />
			<input>
				<port id="0" precision="FP32">
					<dim>1</dim>
					<dim>144</dim>
					<dim>1</dim>
					<dim>1</dim>
				</port>
				<port id="1" precision="FP32">
					<dim>6</dim>
					<dim>144</dim>
					<dim>1</dim>
					<dim>1</dim>
				</port>
			</input>
			<output>
				<port id="2" precision="FP32">
					<dim>1</dim>
					<dim>6</dim>
					<dim>1</dim>
					<dim>1</dim>
				</port>
			</output>
		</layer>
		<layer id="311" name="Reshape_122241" type="Const" version="opset1">
			<data element_type="f32" shape="1, 6, 1, 1" offset="58484" size="24" />
			<output>
				<port id="0" precision="FP32">
					<dim>1</dim>
					<dim>6</dim>
					<dim>1</dim>
					<dim>1</dim>
				</port>
			</output>
		</layer>
		<layer id="312" name="/backbone/stage2/unit2/se/conv1/Conv" type="Add" version="opset1">
			<data auto_broadcast="numpy" />
			<input>
				<port id="0" precision="FP32">
					<dim>1</dim>
					<dim>6</dim>
					<dim>1</dim>
					<dim>1</dim>
				</port>
				<port id="1" precision="FP32">
					<dim>1</dim>
					<dim>6</dim>
					<dim>1</dim>
					<dim>1</dim>
				</port>
			</input>
			<output>
				<port id="2" precision="FP32" names="/backbone/stage2/unit2/se/conv1/Conv_output_0">
					<dim>1</dim>
					<dim>6</dim>
					<dim>1</dim>
					<dim>1</dim>
				</port>
			</output>
		</layer>
		<layer id="313" name="/backbone/stage2/unit2/se/activ/Mul" type="Swish" version="opset4">
			<input>
				<port id="0" precision="FP32">
					<dim>1</dim>
					<dim>6</dim>
					<dim>1</dim>
					<dim>1</dim>
				</port>
			</input>
			<output>
				<port id="1" precision="FP32" names="/backbone/stage2/unit2/se/activ/Mul_output_0">
					<dim>1</dim>
					<dim>6</dim>
					<dim>1</dim>
					<dim>1</dim>
				</port>
			</output>
		</layer>
		<layer id="314" name="model.backbone.features.stage2.unit2.se.conv2.weight" type="Const" version="opset1">
			<data element_type="f32" shape="144, 6, 1, 1" offset="58508" size="3456" />
			<output>
				<port id="0" precision="FP32" names="model.backbone.features.stage2.unit2.se.conv2.weight">
					<dim>144</dim>
					<dim>6</dim>
					<dim>1</dim>
					<dim>1</dim>
				</port>
			</output>
		</layer>
		<layer id="315" name="/backbone/stage2/unit2/se/conv2/Conv/WithoutBiases" type="Convolution" version="opset1">
			<data strides="1, 1" dilations="1, 1" pads_begin="0, 0" pads_end="0, 0" auto_pad="explicit" />
			<input>
				<port id="0" precision="FP32">
					<dim>1</dim>
					<dim>6</dim>
					<dim>1</dim>
					<dim>1</dim>
				</port>
				<port id="1" precision="FP32">
					<dim>144</dim>
					<dim>6</dim>
					<dim>1</dim>
					<dim>1</dim>
				</port>
			</input>
			<output>
				<port id="2" precision="FP32">
					<dim>1</dim>
					<dim>144</dim>
					<dim>1</dim>
					<dim>1</dim>
				</port>
			</output>
		</layer>
		<layer id="316" name="Reshape_122259" type="Const" version="opset1">
			<data element_type="f32" shape="1, 144, 1, 1" offset="61964" size="576" />
			<output>
				<port id="0" precision="FP32">
					<dim>1</dim>
					<dim>144</dim>
					<dim>1</dim>
					<dim>1</dim>
				</port>
			</output>
		</layer>
		<layer id="317" name="/backbone/stage2/unit2/se/conv2/Conv" type="Add" version="opset1">
			<data auto_broadcast="numpy" />
			<input>
				<port id="0" precision="FP32">
					<dim>1</dim>
					<dim>144</dim>
					<dim>1</dim>
					<dim>1</dim>
				</port>
				<port id="1" precision="FP32">
					<dim>1</dim>
					<dim>144</dim>
					<dim>1</dim>
					<dim>1</dim>
				</port>
			</input>
			<output>
				<port id="2" precision="FP32" names="/backbone/stage2/unit2/se/conv2/Conv_output_0">
					<dim>1</dim>
					<dim>144</dim>
					<dim>1</dim>
					<dim>1</dim>
				</port>
			</output>
		</layer>
		<layer id="318" name="/backbone/stage2/unit2/se/sigmoid/Sigmoid" type="Sigmoid" version="opset1">
			<input>
				<port id="0" precision="FP32">
					<dim>1</dim>
					<dim>144</dim>
					<dim>1</dim>
					<dim>1</dim>
				</port>
			</input>
			<output>
				<port id="1" precision="FP32" names="/backbone/stage2/unit2/se/sigmoid/Sigmoid_output_0">
					<dim>1</dim>
					<dim>144</dim>
					<dim>1</dim>
					<dim>1</dim>
				</port>
			</output>
		</layer>
		<layer id="319" name="/backbone/stage2/unit2/se/Mul" type="Multiply" version="opset1">
			<data auto_broadcast="numpy" />
			<input>
				<port id="0" precision="FP32">
					<dim>1</dim>
					<dim>144</dim>
					<dim>256</dim>
					<dim>256</dim>
				</port>
				<port id="1" precision="FP32">
					<dim>1</dim>
					<dim>144</dim>
					<dim>1</dim>
					<dim>1</dim>
				</port>
			</input>
			<output>
				<port id="2" precision="FP32" names="/backbone/stage2/unit2/se/Mul_output_0">
					<dim>1</dim>
					<dim>144</dim>
					<dim>256</dim>
					<dim>256</dim>
				</port>
			</output>
		</layer>
		<layer id="320" name="onnx::Conv_3801" type="Const" version="opset1">
			<data element_type="f32" shape="24, 144, 1, 1" offset="62540" size="13824" />
			<output>
				<port id="0" precision="FP32" names="onnx::Conv_3801">
					<dim>24</dim>
					<dim>144</dim>
					<dim>1</dim>
					<dim>1</dim>
				</port>
			</output>
		</layer>
		<layer id="321" name="/backbone/stage2/unit2/conv3/conv/Conv/WithoutBiases" type="Convolution" version="opset1">
			<data strides="1, 1" dilations="1, 1" pads_begin="0, 0" pads_end="0, 0" auto_pad="explicit" />
			<input>
				<port id="0" precision="FP32">
					<dim>1</dim>
					<dim>144</dim>
					<dim>256</dim>
					<dim>256</dim>
				</port>
				<port id="1" precision="FP32">
					<dim>24</dim>
					<dim>144</dim>
					<dim>1</dim>
					<dim>1</dim>
				</port>
			</input>
			<output>
				<port id="2" precision="FP32">
					<dim>1</dim>
					<dim>24</dim>
					<dim>256</dim>
					<dim>256</dim>
				</port>
			</output>
		</layer>
		<layer id="322" name="Reshape_122277" type="Const" version="opset1">
			<data element_type="f32" shape="1, 24, 1, 1" offset="76364" size="96" />
			<output>
				<port id="0" precision="FP32">
					<dim>1</dim>
					<dim>24</dim>
					<dim>1</dim>
					<dim>1</dim>
				</port>
			</output>
		</layer>
		<layer id="323" name="/backbone/stage2/unit2/conv3/conv/Conv" type="Add" version="opset1">
			<data auto_broadcast="numpy" />
			<input>
				<port id="0" precision="FP32">
					<dim>1</dim>
					<dim>24</dim>
					<dim>256</dim>
					<dim>256</dim>
				</port>
				<port id="1" precision="FP32">
					<dim>1</dim>
					<dim>24</dim>
					<dim>1</dim>
					<dim>1</dim>
				</port>
			</input>
			<output>
				<port id="2" precision="FP32" names="/backbone/stage2/unit2/conv3/conv/Conv_output_0">
					<dim>1</dim>
					<dim>24</dim>
					<dim>256</dim>
					<dim>256</dim>
				</port>
			</output>
		</layer>
		<layer id="324" name="/backbone/stage2/unit2/Add" type="Add" version="opset1">
			<data auto_broadcast="numpy" />
			<input>
				<port id="0" precision="FP32">
					<dim>1</dim>
					<dim>24</dim>
					<dim>256</dim>
					<dim>256</dim>
				</port>
				<port id="1" precision="FP32">
					<dim>1</dim>
					<dim>24</dim>
					<dim>256</dim>
					<dim>256</dim>
				</port>
			</input>
			<output>
				<port id="2" precision="FP32" names="/backbone/stage2/unit2/Add_output_0">
					<dim>1</dim>
					<dim>24</dim>
					<dim>256</dim>
					<dim>256</dim>
				</port>
			</output>
		</layer>
		<layer id="325" name="onnx::Conv_3804" type="Const" version="opset1">
			<data element_type="f32" shape="144, 24, 1, 1" offset="76460" size="13824" />
			<output>
				<port id="0" precision="FP32" names="onnx::Conv_3804">
					<dim>144</dim>
					<dim>24</dim>
					<dim>1</dim>
					<dim>1</dim>
				</port>
			</output>
		</layer>
		<layer id="326" name="/backbone/stage2/unit3/conv1/conv/Conv/WithoutBiases" type="Convolution" version="opset1">
			<data strides="1, 1" dilations="1, 1" pads_begin="0, 0" pads_end="0, 0" auto_pad="explicit" />
			<input>
				<port id="0" precision="FP32">
					<dim>1</dim>
					<dim>24</dim>
					<dim>256</dim>
					<dim>256</dim>
				</port>
				<port id="1" precision="FP32">
					<dim>144</dim>
					<dim>24</dim>
					<dim>1</dim>
					<dim>1</dim>
				</port>
			</input>
			<output>
				<port id="2" precision="FP32">
					<dim>1</dim>
					<dim>144</dim>
					<dim>256</dim>
					<dim>256</dim>
				</port>
			</output>
		</layer>
		<layer id="327" name="Reshape_122294" type="Const" version="opset1">
			<data element_type="f32" shape="1, 144, 1, 1" offset="90284" size="576" />
			<output>
				<port id="0" precision="FP32">
					<dim>1</dim>
					<dim>144</dim>
					<dim>1</dim>
					<dim>1</dim>
				</port>
			</output>
		</layer>
		<layer id="328" name="/backbone/stage2/unit3/conv1/conv/Conv" type="Add" version="opset1">
			<data auto_broadcast="numpy" />
			<input>
				<port id="0" precision="FP32">
					<dim>1</dim>
					<dim>144</dim>
					<dim>256</dim>
					<dim>256</dim>
				</port>
				<port id="1" precision="FP32">
					<dim>1</dim>
					<dim>144</dim>
					<dim>1</dim>
					<dim>1</dim>
				</port>
			</input>
			<output>
				<port id="2" precision="FP32" names="/backbone/stage2/unit3/conv1/conv/Conv_output_0">
					<dim>1</dim>
					<dim>144</dim>
					<dim>256</dim>
					<dim>256</dim>
				</port>
			</output>
		</layer>
		<layer id="329" name="/backbone/stage2/unit3/conv1/activ/Mul" type="Swish" version="opset4">
			<input>
				<port id="0" precision="FP32">
					<dim>1</dim>
					<dim>144</dim>
					<dim>256</dim>
					<dim>256</dim>
				</port>
			</input>
			<output>
				<port id="1" precision="FP32" names="/backbone/stage2/unit3/conv1/activ/Mul_output_0">
					<dim>1</dim>
					<dim>144</dim>
					<dim>256</dim>
					<dim>256</dim>
				</port>
			</output>
		</layer>
		<layer id="330" name="/backbone/stage2/unit3/Constant_2" type="Const" version="opset1">
			<data element_type="i64" shape="" offset="49260" size="8" />
			<output>
				<port id="0" precision="I64" names="/backbone/stage2/unit3/Constant_2_output_0" />
			</output>
		</layer>
		<layer id="331" name="ShapeOf_212909" type="ShapeOf" version="opset3">
			<data output_type="i64" />
			<input>
				<port id="0" precision="FP32">
					<dim>1</dim>
					<dim>144</dim>
					<dim>256</dim>
					<dim>256</dim>
				</port>
			</input>
			<output>
				<port id="1" precision="I64">
					<dim>4</dim>
				</port>
			</output>
		</layer>
		<layer id="332" name="Constant_212910" type="Const" version="opset1">
			<data element_type="i64" shape="" offset="64" size="8" />
			<output>
				<port id="0" precision="I64" />
			</output>
		</layer>
		<layer id="333" name="Constant_212911" type="Const" version="opset1">
			<data element_type="i64" shape="" offset="0" size="8" />
			<output>
				<port id="0" precision="I64" />
			</output>
		</layer>
		<layer id="334" name="Gather_212912" type="Gather" version="opset8">
			<data batch_dims="0" />
			<input>
				<port id="0" precision="I64">
					<dim>4</dim>
				</port>
				<port id="1" precision="I64" />
				<port id="2" precision="I64" />
			</input>
			<output>
				<port id="3" precision="I64" names="/backbone/stage2/unit3/Gather_output_0" />
			</output>
		</layer>
		<layer id="335" name="/backbone/stage2/unit3/Sub" type="Subtract" version="opset1">
			<data auto_broadcast="numpy" />
			<input>
				<port id="0" precision="I64" />
				<port id="1" precision="I64" />
			</input>
			<output>
				<port id="2" precision="I64" names="/backbone/stage2/unit3/Sub_output_0" />
			</output>
		</layer>
		<layer id="336" name="/backbone/stage2/unit3/Constant_4" type="Const" version="opset1">
			<data element_type="i64" shape="" offset="64" size="8" />
			<output>
				<port id="0" precision="I64" names="/backbone/stage2/unit3/Constant_4_output_0" />
			</output>
		</layer>
		<layer id="337" name="/backbone/stage2/unit3/Div" type="Divide" version="opset1">
			<data auto_broadcast="numpy" m_pythondiv="true" />
			<input>
				<port id="0" precision="I64" />
				<port id="1" precision="I64" />
			</input>
			<output>
				<port id="2" precision="I64" names="/backbone/stage2/unit3/Cast_1_output_0,/backbone/stage2/unit3/Cast_output_0,/backbone/stage2/unit3/Div_output_0" />
			</output>
		</layer>
		<layer id="338" name="Constant_212914" type="Const" version="opset1">
			<data element_type="i64" shape="1" offset="72" size="8" />
			<output>
				<port id="0" precision="I64">
					<dim>1</dim>
				</port>
			</output>
		</layer>
		<layer id="339" name="Reshape_212915" type="Reshape" version="opset1">
			<data special_zero="false" />
			<input>
				<port id="0" precision="I64" />
				<port id="1" precision="I64">
					<dim>1</dim>
				</port>
			</input>
			<output>
				<port id="2" precision="I64" names="/backbone/stage2/unit3/Unsqueeze_4_output_0,/backbone/stage2/unit3/Unsqueeze_output_0">
					<dim>1</dim>
				</port>
			</output>
		</layer>
		<layer id="340" name="/backbone/stage2/unit3/Sub_2" type="Subtract" version="opset1">
			<data auto_broadcast="numpy" />
			<input>
				<port id="0" precision="I64" />
				<port id="1" precision="I64" />
			</input>
			<output>
				<port id="2" precision="I64" names="/backbone/stage2/unit3/Sub_2_output_0" />
			</output>
		</layer>
		<layer id="341" name="Constant_213015" type="Const" version="opset1">
			<data element_type="i64" shape="1" offset="72" size="8" />
			<output>
				<port id="0" precision="I64">
					<dim>1</dim>
				</port>
			</output>
		</layer>
		<layer id="342" name="Reshape_213016" type="Reshape" version="opset1">
			<data special_zero="false" />
			<input>
				<port id="0" precision="I64" />
				<port id="1" precision="I64">
					<dim>1</dim>
				</port>
			</input>
			<output>
				<port id="2" precision="I64" names="/backbone/stage2/unit3/Unsqueeze_1_output_0,/backbone/stage2/unit3/Unsqueeze_5_output_0">
					<dim>1</dim>
				</port>
			</output>
		</layer>
		<layer id="343" name="/backbone/stage2/unit3/Constant_3" type="Const" version="opset1">
			<data element_type="i64" shape="" offset="49260" size="8" />
			<output>
				<port id="0" precision="I64" names="/backbone/stage2/unit3/Constant_3_output_0" />
			</output>
		</layer>
		<layer id="344" name="Constant_213181" type="Const" version="opset1">
			<data element_type="i64" shape="" offset="80" size="8" />
			<output>
				<port id="0" precision="I64" />
			</output>
		</layer>
		<layer id="345" name="Constant_213182" type="Const" version="opset1">
			<data element_type="i64" shape="" offset="0" size="8" />
			<output>
				<port id="0" precision="I64" />
			</output>
		</layer>
		<layer id="346" name="Gather_213183" type="Gather" version="opset8">
			<data batch_dims="0" />
			<input>
				<port id="0" precision="I64">
					<dim>4</dim>
				</port>
				<port id="1" precision="I64" />
				<port id="2" precision="I64" />
			</input>
			<output>
				<port id="3" precision="I64" names="/backbone/stage2/unit3/Gather_1_output_0" />
			</output>
		</layer>
		<layer id="347" name="/backbone/stage2/unit3/Sub_1" type="Subtract" version="opset1">
			<data auto_broadcast="numpy" />
			<input>
				<port id="0" precision="I64" />
				<port id="1" precision="I64" />
			</input>
			<output>
				<port id="2" precision="I64" names="/backbone/stage2/unit3/Sub_1_output_0" />
			</output>
		</layer>
		<layer id="348" name="/backbone/stage2/unit3/Constant_5" type="Const" version="opset1">
			<data element_type="i64" shape="" offset="64" size="8" />
			<output>
				<port id="0" precision="I64" names="/backbone/stage2/unit3/Constant_5_output_0" />
			</output>
		</layer>
		<layer id="349" name="/backbone/stage2/unit3/Div_1" type="Divide" version="opset1">
			<data auto_broadcast="numpy" m_pythondiv="true" />
			<input>
				<port id="0" precision="I64" />
				<port id="1" precision="I64" />
			</input>
			<output>
				<port id="2" precision="I64" names="/backbone/stage2/unit3/Cast_2_output_0,/backbone/stage2/unit3/Cast_3_output_0,/backbone/stage2/unit3/Div_1_output_0" />
			</output>
		</layer>
		<layer id="350" name="Constant_213185" type="Const" version="opset1">
			<data element_type="i64" shape="1" offset="72" size="8" />
			<output>
				<port id="0" precision="I64">
					<dim>1</dim>
				</port>
			</output>
		</layer>
		<layer id="351" name="Reshape_213186" type="Reshape" version="opset1">
			<data special_zero="false" />
			<input>
				<port id="0" precision="I64" />
				<port id="1" precision="I64">
					<dim>1</dim>
				</port>
			</input>
			<output>
				<port id="2" precision="I64" names="/backbone/stage2/unit3/Unsqueeze_2_output_0,/backbone/stage2/unit3/Unsqueeze_6_output_0">
					<dim>1</dim>
				</port>
			</output>
		</layer>
		<layer id="352" name="/backbone/stage2/unit3/Sub_3" type="Subtract" version="opset1">
			<data auto_broadcast="numpy" />
			<input>
				<port id="0" precision="I64" />
				<port id="1" precision="I64" />
			</input>
			<output>
				<port id="2" precision="I64" names="/backbone/stage2/unit3/Sub_3_output_0" />
			</output>
		</layer>
		<layer id="353" name="Constant_213286" type="Const" version="opset1">
			<data element_type="i64" shape="1" offset="72" size="8" />
			<output>
				<port id="0" precision="I64">
					<dim>1</dim>
				</port>
			</output>
		</layer>
		<layer id="354" name="Reshape_213287" type="Reshape" version="opset1">
			<data special_zero="false" />
			<input>
				<port id="0" precision="I64" />
				<port id="1" precision="I64">
					<dim>1</dim>
				</port>
			</input>
			<output>
				<port id="2" precision="I64" names="/backbone/stage2/unit3/Unsqueeze_3_output_0,/backbone/stage2/unit3/Unsqueeze_7_output_0">
					<dim>1</dim>
				</port>
			</output>
		</layer>
		<layer id="355" name="/backbone/stage2/unit3/Concat" type="Concat" version="opset1">
			<data axis="0" />
			<input>
				<port id="0" precision="I64">
					<dim>1</dim>
				</port>
				<port id="1" precision="I64">
					<dim>1</dim>
				</port>
				<port id="2" precision="I64">
					<dim>1</dim>
				</port>
				<port id="3" precision="I64">
					<dim>1</dim>
				</port>
			</input>
			<output>
				<port id="4" precision="I64" names="/backbone/stage2/unit3/Cast_4_output_0,/backbone/stage2/unit3/Concat_1_output_0,/backbone/stage2/unit3/Concat_output_0">
					<dim>4</dim>
				</port>
			</output>
		</layer>
		<layer id="356" name="/backbone/stage2/unit3/ConstantOfShape" type="Const" version="opset1">
			<data element_type="i64" shape="4" offset="88" size="32" />
			<output>
				<port id="0" precision="I64" names="/backbone/stage2/unit3/ConstantOfShape_output_0">
					<dim>4</dim>
				</port>
			</output>
		</layer>
		<layer id="357" name="/backbone/stage2/unit3/Concat_2" type="Concat" version="opset1">
			<data axis="0" />
			<input>
				<port id="0" precision="I64">
					<dim>4</dim>
				</port>
				<port id="1" precision="I64">
					<dim>4</dim>
				</port>
			</input>
			<output>
				<port id="2" precision="I64" names="/backbone/stage2/unit3/Concat_2_output_0">
					<dim>8</dim>
				</port>
			</output>
		</layer>
		<layer id="358" name="/backbone/stage2/unit3/Constant_8" type="Const" version="opset1">
			<data element_type="i64" shape="2" offset="120" size="16" />
			<output>
				<port id="0" precision="I64" names="/backbone/stage2/unit3/Constant_8_output_0">
					<dim>2</dim>
				</port>
			</output>
		</layer>
		<layer id="359" name="/backbone/stage2/unit3/Reshape" type="Reshape" version="opset1">
			<data special_zero="true" />
			<input>
				<port id="0" precision="I64">
					<dim>8</dim>
				</port>
				<port id="1" precision="I64">
					<dim>2</dim>
				</port>
			</input>
			<output>
				<port id="2" precision="I64" names="/backbone/stage2/unit3/Reshape_output_0">
					<dim>4</dim>
					<dim>2</dim>
				</port>
			</output>
		</layer>
		<layer id="360" name="/backbone/stage2/unit3/Constant_10" type="Const" version="opset1">
			<data element_type="i64" shape="1" offset="136" size="8" />
			<output>
				<port id="0" precision="I64" names="/backbone/stage2/unit3/Constant_10_output_0">
					<dim>1</dim>
				</port>
			</output>
		</layer>
		<layer id="361" name="/backbone/stage2/unit3/Constant_11" type="Const" version="opset1">
			<data element_type="i64" shape="1" offset="144" size="8" />
			<output>
				<port id="0" precision="I64" names="/backbone/stage2/unit3/Constant_11_output_0">
					<dim>1</dim>
				</port>
			</output>
		</layer>
		<layer id="362" name="/backbone/stage2/unit3/Constant_12" type="Const" version="opset1">
			<data element_type="i64" shape="1" offset="136" size="8" />
			<output>
				<port id="0" precision="I64" names="/backbone/stage2/unit3/Constant_12_output_0">
					<dim>1</dim>
				</port>
			</output>
		</layer>
		<layer id="363" name="/backbone/stage2/unit3/Constant_9" type="Const" version="opset1">
			<data element_type="i64" shape="1" offset="0" size="8" />
			<output>
				<port id="0" precision="I64" names="/backbone/stage2/unit3/Constant_9_output_0">
					<dim>1</dim>
				</port>
			</output>
		</layer>
		<layer id="364" name="/backbone/stage2/unit3/Slice" type="Slice" version="opset8">
			<input>
				<port id="0" precision="I64">
					<dim>4</dim>
					<dim>2</dim>
				</port>
				<port id="1" precision="I64">
					<dim>1</dim>
				</port>
				<port id="2" precision="I64">
					<dim>1</dim>
				</port>
				<port id="3" precision="I64">
					<dim>1</dim>
				</port>
				<port id="4" precision="I64">
					<dim>1</dim>
				</port>
			</input>
			<output>
				<port id="5" precision="I64" names="/backbone/stage2/unit3/Slice_output_0">
					<dim>4</dim>
					<dim>2</dim>
				</port>
			</output>
		</layer>
		<layer id="365" name="Constant_122361" type="Const" version="opset1">
			<data element_type="i64" shape="2" offset="152" size="16" />
			<output>
				<port id="0" precision="I64">
					<dim>2</dim>
				</port>
			</output>
		</layer>
		<layer id="366" name="/backbone/stage2/unit3/Transpose" type="Transpose" version="opset1">
			<input>
				<port id="0" precision="I64">
					<dim>4</dim>
					<dim>2</dim>
				</port>
				<port id="1" precision="I64">
					<dim>2</dim>
				</port>
			</input>
			<output>
				<port id="2" precision="I64" names="/backbone/stage2/unit3/Transpose_output_0">
					<dim>2</dim>
					<dim>4</dim>
				</port>
			</output>
		</layer>
		<layer id="367" name="Constant_143676" type="Const" version="opset1">
			<data element_type="i64" shape="1" offset="136" size="8" />
			<output>
				<port id="0" precision="I64">
					<dim>1</dim>
				</port>
			</output>
		</layer>
		<layer id="368" name="/backbone/stage2/unit3/Reshape_1" type="Reshape" version="opset1">
			<data special_zero="true" />
			<input>
				<port id="0" precision="I64">
					<dim>2</dim>
					<dim>4</dim>
				</port>
				<port id="1" precision="I64">
					<dim>1</dim>
				</port>
			</input>
			<output>
				<port id="2" precision="I64" names="/backbone/stage2/unit3/Cast_5_output_0,/backbone/stage2/unit3/Reshape_1_output_0">
					<dim>8</dim>
				</port>
			</output>
		</layer>
		<layer id="369" name="Constant_122368" type="Const" version="opset1">
			<data element_type="i64" shape="" offset="0" size="8" />
			<output>
				<port id="0" precision="I64" />
			</output>
		</layer>
		<layer id="370" name="Split_122369" type="Split" version="opset1">
			<data num_splits="2" />
			<input>
				<port id="0" precision="I64">
					<dim>8</dim>
				</port>
				<port id="1" precision="I64" />
			</input>
			<output>
				<port id="2" precision="I64">
					<dim>4</dim>
				</port>
				<port id="3" precision="I64">
					<dim>4</dim>
				</port>
			</output>
		</layer>
		<layer id="371" name="Constant_122367" type="Const" version="opset1">
			<data element_type="f32" shape="" offset="168" size="4" />
			<output>
				<port id="0" precision="FP32" />
			</output>
		</layer>
		<layer id="372" name="/backbone/stage2/unit3/Pad" type="Pad" version="opset12">
			<data pad_mode="constant" />
			<input>
				<port id="0" precision="FP32">
					<dim>1</dim>
					<dim>144</dim>
					<dim>256</dim>
					<dim>256</dim>
				</port>
				<port id="1" precision="I64">
					<dim>4</dim>
				</port>
				<port id="2" precision="I64">
					<dim>4</dim>
				</port>
				<port id="3" precision="FP32" />
			</input>
			<output>
				<port id="4" precision="FP32" names="/backbone/stage2/unit3/Pad_output_0">
					<dim>1</dim>
					<dim>144</dim>
					<dim>258</dim>
					<dim>258</dim>
				</port>
			</output>
		</layer>
		<layer id="373" name="Reshape_122481" type="Const" version="opset1">
			<data element_type="f32" shape="144, 1, 1, 3, 3" offset="90860" size="5184" />
			<output>
				<port id="0" precision="FP32">
					<dim>144</dim>
					<dim>1</dim>
					<dim>1</dim>
					<dim>3</dim>
					<dim>3</dim>
				</port>
			</output>
		</layer>
		<layer id="374" name="/backbone/stage2/unit3/conv2/conv/Conv/WithoutBiases" type="GroupConvolution" version="opset1">
			<data strides="1, 1" pads_begin="0, 0" pads_end="0, 0" dilations="1, 1" auto_pad="explicit" />
			<input>
				<port id="0" precision="FP32">
					<dim>1</dim>
					<dim>144</dim>
					<dim>258</dim>
					<dim>258</dim>
				</port>
				<port id="1" precision="FP32">
					<dim>144</dim>
					<dim>1</dim>
					<dim>1</dim>
					<dim>3</dim>
					<dim>3</dim>
				</port>
			</input>
			<output>
				<port id="2" precision="FP32">
					<dim>1</dim>
					<dim>144</dim>
					<dim>256</dim>
					<dim>256</dim>
				</port>
			</output>
		</layer>
		<layer id="375" name="Reshape_122533" type="Const" version="opset1">
			<data element_type="f32" shape="1, 144, 1, 1" offset="96044" size="576" />
			<output>
				<port id="0" precision="FP32">
					<dim>1</dim>
					<dim>144</dim>
					<dim>1</dim>
					<dim>1</dim>
				</port>
			</output>
		</layer>
		<layer id="376" name="/backbone/stage2/unit3/conv2/conv/Conv" type="Add" version="opset1">
			<data auto_broadcast="numpy" />
			<input>
				<port id="0" precision="FP32">
					<dim>1</dim>
					<dim>144</dim>
					<dim>256</dim>
					<dim>256</dim>
				</port>
				<port id="1" precision="FP32">
					<dim>1</dim>
					<dim>144</dim>
					<dim>1</dim>
					<dim>1</dim>
				</port>
			</input>
			<output>
				<port id="2" precision="FP32" names="/backbone/stage2/unit3/conv2/conv/Conv_output_0">
					<dim>1</dim>
					<dim>144</dim>
					<dim>256</dim>
					<dim>256</dim>
				</port>
			</output>
		</layer>
		<layer id="377" name="/backbone/stage2/unit3/conv2/activ/Mul" type="Swish" version="opset4">
			<input>
				<port id="0" precision="FP32">
					<dim>1</dim>
					<dim>144</dim>
					<dim>256</dim>
					<dim>256</dim>
				</port>
			</input>
			<output>
				<port id="1" precision="FP32" names="/backbone/stage2/unit3/conv2/activ/Mul_output_0">
					<dim>1</dim>
					<dim>144</dim>
					<dim>256</dim>
					<dim>256</dim>
				</port>
			</output>
		</layer>
		<layer id="378" name="Range_122545" type="Const" version="opset1">
			<data element_type="i64" shape="2" offset="5044" size="16" />
			<output>
				<port id="0" precision="I64">
					<dim>2</dim>
				</port>
			</output>
		</layer>
		<layer id="379" name="/backbone/stage2/unit3/se/pool/GlobalAveragePool" type="ReduceMean" version="opset1">
			<data keep_dims="true" />
			<input>
				<port id="0" precision="FP32">
					<dim>1</dim>
					<dim>144</dim>
					<dim>256</dim>
					<dim>256</dim>
				</port>
				<port id="1" precision="I64">
					<dim>2</dim>
				</port>
			</input>
			<output>
				<port id="2" precision="FP32" names="/backbone/stage2/unit3/se/pool/GlobalAveragePool_output_0">
					<dim>1</dim>
					<dim>144</dim>
					<dim>1</dim>
					<dim>1</dim>
				</port>
			</output>
		</layer>
		<layer id="380" name="model.backbone.features.stage2.unit3.se.conv1.weight" type="Const" version="opset1">
			<data element_type="f32" shape="6, 144, 1, 1" offset="96620" size="3456" />
			<output>
				<port id="0" precision="FP32" names="model.backbone.features.stage2.unit3.se.conv1.weight">
					<dim>6</dim>
					<dim>144</dim>
					<dim>1</dim>
					<dim>1</dim>
				</port>
			</output>
		</layer>
		<layer id="381" name="/backbone/stage2/unit3/se/conv1/Conv/WithoutBiases" type="Convolution" version="opset1">
			<data strides="1, 1" dilations="1, 1" pads_begin="0, 0" pads_end="0, 0" auto_pad="explicit" />
			<input>
				<port id="0" precision="FP32">
					<dim>1</dim>
					<dim>144</dim>
					<dim>1</dim>
					<dim>1</dim>
				</port>
				<port id="1" precision="FP32">
					<dim>6</dim>
					<dim>144</dim>
					<dim>1</dim>
					<dim>1</dim>
				</port>
			</input>
			<output>
				<port id="2" precision="FP32">
					<dim>1</dim>
					<dim>6</dim>
					<dim>1</dim>
					<dim>1</dim>
				</port>
			</output>
		</layer>
		<layer id="382" name="Reshape_122563" type="Const" version="opset1">
			<data element_type="f32" shape="1, 6, 1, 1" offset="100076" size="24" />
			<output>
				<port id="0" precision="FP32">
					<dim>1</dim>
					<dim>6</dim>
					<dim>1</dim>
					<dim>1</dim>
				</port>
			</output>
		</layer>
		<layer id="383" name="/backbone/stage2/unit3/se/conv1/Conv" type="Add" version="opset1">
			<data auto_broadcast="numpy" />
			<input>
				<port id="0" precision="FP32">
					<dim>1</dim>
					<dim>6</dim>
					<dim>1</dim>
					<dim>1</dim>
				</port>
				<port id="1" precision="FP32">
					<dim>1</dim>
					<dim>6</dim>
					<dim>1</dim>
					<dim>1</dim>
				</port>
			</input>
			<output>
				<port id="2" precision="FP32" names="/backbone/stage2/unit3/se/conv1/Conv_output_0">
					<dim>1</dim>
					<dim>6</dim>
					<dim>1</dim>
					<dim>1</dim>
				</port>
			</output>
		</layer>
		<layer id="384" name="/backbone/stage2/unit3/se/activ/Mul" type="Swish" version="opset4">
			<input>
				<port id="0" precision="FP32">
					<dim>1</dim>
					<dim>6</dim>
					<dim>1</dim>
					<dim>1</dim>
				</port>
			</input>
			<output>
				<port id="1" precision="FP32" names="/backbone/stage2/unit3/se/activ/Mul_output_0">
					<dim>1</dim>
					<dim>6</dim>
					<dim>1</dim>
					<dim>1</dim>
				</port>
			</output>
		</layer>
		<layer id="385" name="model.backbone.features.stage2.unit3.se.conv2.weight" type="Const" version="opset1">
			<data element_type="f32" shape="144, 6, 1, 1" offset="100100" size="3456" />
			<output>
				<port id="0" precision="FP32" names="model.backbone.features.stage2.unit3.se.conv2.weight">
					<dim>144</dim>
					<dim>6</dim>
					<dim>1</dim>
					<dim>1</dim>
				</port>
			</output>
		</layer>
		<layer id="386" name="/backbone/stage2/unit3/se/conv2/Conv/WithoutBiases" type="Convolution" version="opset1">
			<data strides="1, 1" dilations="1, 1" pads_begin="0, 0" pads_end="0, 0" auto_pad="explicit" />
			<input>
				<port id="0" precision="FP32">
					<dim>1</dim>
					<dim>6</dim>
					<dim>1</dim>
					<dim>1</dim>
				</port>
				<port id="1" precision="FP32">
					<dim>144</dim>
					<dim>6</dim>
					<dim>1</dim>
					<dim>1</dim>
				</port>
			</input>
			<output>
				<port id="2" precision="FP32">
					<dim>1</dim>
					<dim>144</dim>
					<dim>1</dim>
					<dim>1</dim>
				</port>
			</output>
		</layer>
		<layer id="387" name="Reshape_122581" type="Const" version="opset1">
			<data element_type="f32" shape="1, 144, 1, 1" offset="103556" size="576" />
			<output>
				<port id="0" precision="FP32">
					<dim>1</dim>
					<dim>144</dim>
					<dim>1</dim>
					<dim>1</dim>
				</port>
			</output>
		</layer>
		<layer id="388" name="/backbone/stage2/unit3/se/conv2/Conv" type="Add" version="opset1">
			<data auto_broadcast="numpy" />
			<input>
				<port id="0" precision="FP32">
					<dim>1</dim>
					<dim>144</dim>
					<dim>1</dim>
					<dim>1</dim>
				</port>
				<port id="1" precision="FP32">
					<dim>1</dim>
					<dim>144</dim>
					<dim>1</dim>
					<dim>1</dim>
				</port>
			</input>
			<output>
				<port id="2" precision="FP32" names="/backbone/stage2/unit3/se/conv2/Conv_output_0">
					<dim>1</dim>
					<dim>144</dim>
					<dim>1</dim>
					<dim>1</dim>
				</port>
			</output>
		</layer>
		<layer id="389" name="/backbone/stage2/unit3/se/sigmoid/Sigmoid" type="Sigmoid" version="opset1">
			<input>
				<port id="0" precision="FP32">
					<dim>1</dim>
					<dim>144</dim>
					<dim>1</dim>
					<dim>1</dim>
				</port>
			</input>
			<output>
				<port id="1" precision="FP32" names="/backbone/stage2/unit3/se/sigmoid/Sigmoid_output_0">
					<dim>1</dim>
					<dim>144</dim>
					<dim>1</dim>
					<dim>1</dim>
				</port>
			</output>
		</layer>
		<layer id="390" name="/backbone/stage2/unit3/se/Mul" type="Multiply" version="opset1">
			<data auto_broadcast="numpy" />
			<input>
				<port id="0" precision="FP32">
					<dim>1</dim>
					<dim>144</dim>
					<dim>256</dim>
					<dim>256</dim>
				</port>
				<port id="1" precision="FP32">
					<dim>1</dim>
					<dim>144</dim>
					<dim>1</dim>
					<dim>1</dim>
				</port>
			</input>
			<output>
				<port id="2" precision="FP32" names="/backbone/stage2/unit3/se/Mul_output_0">
					<dim>1</dim>
					<dim>144</dim>
					<dim>256</dim>
					<dim>256</dim>
				</port>
			</output>
		</layer>
		<layer id="391" name="onnx::Conv_3810" type="Const" version="opset1">
			<data element_type="f32" shape="24, 144, 1, 1" offset="104132" size="13824" />
			<output>
				<port id="0" precision="FP32" names="onnx::Conv_3810">
					<dim>24</dim>
					<dim>144</dim>
					<dim>1</dim>
					<dim>1</dim>
				</port>
			</output>
		</layer>
		<layer id="392" name="/backbone/stage2/unit3/conv3/conv/Conv/WithoutBiases" type="Convolution" version="opset1">
			<data strides="1, 1" dilations="1, 1" pads_begin="0, 0" pads_end="0, 0" auto_pad="explicit" />
			<input>
…
		<edge from-layer="2688" from-port="1" to-layer="2703" to-port="0" />
		<edge from-layer="2689" from-port="0" to-layer="2690" to-port="1" />
		<edge from-layer="2690" from-port="2" to-layer="2692" to-port="0" />
		<edge from-layer="2691" from-port="0" to-layer="2692" to-port="1" />
		<edge from-layer="2692" from-port="2" to-layer="2693" to-port="1" />
		<edge from-layer="2693" from-port="2" to-layer="2708" to-port="0" />
		<edge from-layer="2694" from-port="0" to-layer="2695" to-port="2" />
		<edge from-layer="2695" from-port="3" to-layer="2699" to-port="0" />
		<edge from-layer="2696" from-port="0" to-layer="2698" to-port="1" />
		<edge from-layer="2697" from-port="0" to-layer="2698" to-port="2" />
		<edge from-layer="2698" from-port="3" to-layer="2699" to-port="1" />
		<edge from-layer="2698" from-port="3" to-layer="2704" to-port="0" />
		<edge from-layer="2699" from-port="2" to-layer="2700" to-port="1" />
		<edge from-layer="2700" from-port="2" to-layer="2706" to-port="0" />
		<edge from-layer="2701" from-port="0" to-layer="2703" to-port="1" />
		<edge from-layer="2702" from-port="0" to-layer="2703" to-port="2" />
		<edge from-layer="2703" from-port="3" to-layer="2704" to-port="1" />
		<edge from-layer="2704" from-port="2" to-layer="2705" to-port="1" />
		<edge from-layer="2705" from-port="2" to-layer="2706" to-port="1" />
		<edge from-layer="2706" from-port="2" to-layer="2708" to-port="1" />
		<edge from-layer="2707" from-port="0" to-layer="2708" to-port="2" />
		<edge from-layer="2708" from-port="3" to-layer="2710" to-port="0" />
		<edge from-layer="2709" from-port="0" to-layer="2710" to-port="1" />
		<edge from-layer="2710" from-port="2" to-layer="2712" to-port="0" />
		<edge from-layer="2711" from-port="0" to-layer="2712" to-port="1" />
		<edge from-layer="2712" from-port="2" to-layer="2713" to-port="1" />
		<edge from-layer="2713" from-port="2" to-layer="2715" to-port="0" />
		<edge from-layer="2714" from-port="0" to-layer="2715" to-port="1" />
		<edge from-layer="2715" from-port="2" to-layer="2721" to-port="0" />
		<edge from-layer="2716" from-port="0" to-layer="2717" to-port="1" />
		<edge from-layer="2717" from-port="2" to-layer="2720" to-port="0" />
		<edge from-layer="2718" from-port="0" to-layer="2720" to-port="1" />
		<edge from-layer="2719" from-port="0" to-layer="2720" to-port="2" />
		<edge from-layer="2720" from-port="3" to-layer="2721" to-port="1" />
		<edge from-layer="2721" from-port="2" to-layer="2723" to-port="1" />
		<edge from-layer="2722" from-port="0" to-layer="2723" to-port="2" />
		<edge from-layer="2723" from-port="3" to-layer="2733" to-port="0" />
		<edge from-layer="2723" from-port="3" to-layer="2725" to-port="0" />
		<edge from-layer="2724" from-port="0" to-layer="2732" to-port="0" />
		<edge from-layer="2725" from-port="1" to-layer="2728" to-port="0" />
		<edge from-layer="2726" from-port="0" to-layer="2728" to-port="1" />
		<edge from-layer="2727" from-port="0" to-layer="2728" to-port="2" />
		<edge from-layer="2728" from-port="3" to-layer="2731" to-port="0" />
		<edge from-layer="2729" from-port="0" to-layer="2731" to-port="1" />
		<edge from-layer="2730" from-port="0" to-layer="2731" to-port="2" />
		<edge from-layer="2731" from-port="3" to-layer="2732" to-port="1" />
		<edge from-layer="2732" from-port="2" to-layer="2733" to-port="1" />
		<edge from-layer="2733" from-port="2" to-layer="2738" to-port="0" />
		<edge from-layer="2733" from-port="2" to-layer="2736" to-port="0" />
		<edge from-layer="2733" from-port="2" to-layer="2784" to-port="0" />
		<edge from-layer="2734" from-port="0" to-layer="2736" to-port="1" />
		<edge from-layer="2734" from-port="0" to-layer="3115" to-port="1" />
		<edge from-layer="2735" from-port="0" to-layer="2736" to-port="2" />
		<edge from-layer="2736" from-port="3" to-layer="2749" to-port="0" />
		<edge from-layer="2737" from-port="0" to-layer="2742" to-port="0" />
		<edge from-layer="2738" from-port="1" to-layer="2791" to-port="0" />
		<edge from-layer="2738" from-port="1" to-layer="2741" to-port="0" />
		<edge from-layer="2738" from-port="1" to-layer="2779" to-port="0" />
		<edge from-layer="2738" from-port="1" to-layer="2752" to-port="0" />
		<edge from-layer="2739" from-port="0" to-layer="2741" to-port="1" />
		<edge from-layer="2740" from-port="0" to-layer="2741" to-port="2" />
		<edge from-layer="2741" from-port="3" to-layer="2744" to-port="2" />
		<edge from-layer="2741" from-port="3" to-layer="2742" to-port="1" />
		<edge from-layer="2742" from-port="2" to-layer="2744" to-port="0" />
		<edge from-layer="2743" from-port="0" to-layer="3122" to-port="1" />
		<edge from-layer="2743" from-port="0" to-layer="2744" to-port="1" />
		<edge from-layer="2744" from-port="3" to-layer="2746" to-port="0" />
		<edge from-layer="2745" from-port="0" to-layer="2746" to-port="1" />
		<edge from-layer="2746" from-port="2" to-layer="2748" to-port="0" />
		<edge from-layer="2747" from-port="0" to-layer="2748" to-port="1" />
		<edge from-layer="2748" from-port="2" to-layer="2749" to-port="1" />
		<edge from-layer="2749" from-port="3" to-layer="2754" to-port="0" />
		<edge from-layer="2750" from-port="0" to-layer="2752" to-port="1" />
		<edge from-layer="2751" from-port="0" to-layer="2752" to-port="2" />
		<edge from-layer="2752" from-port="3" to-layer="2753" to-port="1" />
		<edge from-layer="2753" from-port="2" to-layer="2754" to-port="1" />
		<edge from-layer="2754" from-port="2" to-layer="2755" to-port="0" />
		<edge from-layer="2754" from-port="2" to-layer="2786" to-port="1" />
		<edge from-layer="2755" from-port="1" to-layer="2758" to-port="0" />
		<edge from-layer="2755" from-port="1" to-layer="2768" to-port="0" />
		<edge from-layer="2755" from-port="1" to-layer="2792" to-port="0" />
		<edge from-layer="2756" from-port="0" to-layer="2758" to-port="1" />
		<edge from-layer="2757" from-port="0" to-layer="2758" to-port="2" />
		<edge from-layer="2758" from-port="3" to-layer="2765" to-port="0" />
		<edge from-layer="2758" from-port="3" to-layer="2760" to-port="1" />
		<edge from-layer="2759" from-port="0" to-layer="2760" to-port="2" />
		<edge from-layer="2760" from-port="3" to-layer="2761" to-port="0" />
		<edge from-layer="2760" from-port="3" to-layer="3043" to-port="0" />
		<edge from-layer="2760" from-port="3" to-layer="2993" to-port="0" />
		<edge from-layer="2761" from-port="1" to-layer="2763" to-port="0" />
		<edge from-layer="2762" from-port="0" to-layer="2763" to-port="1" />
		<edge from-layer="2763" from-port="2" to-layer="2775" to-port="0" />
		<edge from-layer="2764" from-port="0" to-layer="2765" to-port="1" />
		<edge from-layer="2765" from-port="2" to-layer="3228" to-port="0" />
		<edge from-layer="2765" from-port="2" to-layer="2969" to-port="0" />
		<edge from-layer="2765" from-port="2" to-layer="3100" to-port="0" />
		<edge from-layer="2765" from-port="2" to-layer="2770" to-port="0" />
		<edge from-layer="2766" from-port="0" to-layer="2768" to-port="1" />
		<edge from-layer="2767" from-port="0" to-layer="2768" to-port="2" />
		<edge from-layer="2768" from-port="3" to-layer="2770" to-port="1" />
		<edge from-layer="2768" from-port="3" to-layer="2984" to-port="0" />
		<edge from-layer="2769" from-port="0" to-layer="2770" to-port="2" />
		<edge from-layer="2770" from-port="3" to-layer="2772" to-port="0" />
		<edge from-layer="2770" from-port="3" to-layer="2774" to-port="2" />
		<edge from-layer="2771" from-port="0" to-layer="2772" to-port="1" />
		<edge from-layer="2772" from-port="2" to-layer="2774" to-port="0" />
		<edge from-layer="2773" from-port="0" to-layer="2774" to-port="1" />
		<edge from-layer="2774" from-port="3" to-layer="2775" to-port="1" />
		<edge from-layer="2775" from-port="2" to-layer="2799" to-port="0" />
		<edge from-layer="2776" from-port="0" to-layer="2779" to-port="1" />
		<edge from-layer="2777" from-port="0" to-layer="2779" to-port="2" />
		<edge from-layer="2778" from-port="0" to-layer="2779" to-port="3" />
		<edge from-layer="2779" from-port="4" to-layer="2781" to-port="0" />
		<edge from-layer="2780" from-port="0" to-layer="2781" to-port="1" />
		<edge from-layer="2781" from-port="2" to-layer="2783" to-port="0" />
		<edge from-layer="2782" from-port="0" to-layer="2783" to-port="1" />
		<edge from-layer="2783" from-port="2" to-layer="2784" to-port="1" />
		<edge from-layer="2784" from-port="2" to-layer="2786" to-port="0" />
		<edge from-layer="2785" from-port="0" to-layer="2786" to-port="2" />
		<edge from-layer="2786" from-port="3" to-layer="2788" to-port="0" />
		<edge from-layer="2787" from-port="0" to-layer="2788" to-port="1" />
		<edge from-layer="2788" from-port="2" to-layer="2793" to-port="0" />
		<edge from-layer="2789" from-port="0" to-layer="2791" to-port="1" />
		<edge from-layer="2790" from-port="0" to-layer="2791" to-port="2" />
		<edge from-layer="2791" from-port="3" to-layer="2792" to-port="1" />
		<edge from-layer="2792" from-port="2" to-layer="2793" to-port="1" />
		<edge from-layer="2793" from-port="2" to-layer="2798" to-port="0" />
		<edge from-layer="2794" from-port="0" to-layer="2798" to-port="1" />
		<edge from-layer="2795" from-port="0" to-layer="2798" to-port="2" />
		<edge from-layer="2796" from-port="0" to-layer="2798" to-port="3" />
		<edge from-layer="2797" from-port="0" to-layer="2798" to-port="4" />
		<edge from-layer="2798" from-port="5" to-layer="2799" to-port="1" />
		<edge from-layer="2799" from-port="2" to-layer="2802" to-port="0" />
		<edge from-layer="2799" from-port="2" to-layer="2801" to-port="0" />
		<edge from-layer="2800" from-port="0" to-layer="2801" to-port="1" />
		<edge from-layer="2801" from-port="2" to-layer="2813" to-port="0" />
		<edge from-layer="2801" from-port="2" to-layer="2806" to-port="0" />
		<edge from-layer="2801" from-port="2" to-layer="2841" to-port="0" />
		<edge from-layer="2802" from-port="1" to-layer="2805" to-port="0" />
		<edge from-layer="2803" from-port="0" to-layer="2805" to-port="1" />
		<edge from-layer="2804" from-port="0" to-layer="2805" to-port="2" />
		<edge from-layer="2805" from-port="3" to-layer="2865" to-port="0" />
		<edge from-layer="2805" from-port="3" to-layer="2935" to-port="0" />
		<edge from-layer="2805" from-port="3" to-layer="2812" to-port="0" />
		<edge from-layer="2806" from-port="1" to-layer="2811" to-port="0" />
		<edge from-layer="2807" from-port="0" to-layer="2811" to-port="1" />
		<edge from-layer="2808" from-port="0" to-layer="2811" to-port="2" />
		<edge from-layer="2809" from-port="0" to-layer="2811" to-port="3" />
		<edge from-layer="2810" from-port="0" to-layer="2811" to-port="4" />
		<edge from-layer="2811" from-port="5" to-layer="2812" to-port="1" />
		<edge from-layer="2812" from-port="2" to-layer="2813" to-port="1" />
		<edge from-layer="2813" from-port="2" to-layer="2818" to-port="0" />
		<edge from-layer="2814" from-port="0" to-layer="2818" to-port="1" />
		<edge from-layer="2815" from-port="0" to-layer="2818" to-port="2" />
		<edge from-layer="2816" from-port="0" to-layer="2818" to-port="3" />
		<edge from-layer="2817" from-port="0" to-layer="2818" to-port="4" />
		<edge from-layer="2818" from-port="5" to-layer="2823" to-port="0" />
		<edge from-layer="2818" from-port="5" to-layer="2830" to-port="0" />
		<edge from-layer="2819" from-port="0" to-layer="2823" to-port="1" />
		<edge from-layer="2820" from-port="0" to-layer="2823" to-port="2" />
		<edge from-layer="2821" from-port="0" to-layer="2823" to-port="3" />
		<edge from-layer="2822" from-port="0" to-layer="2823" to-port="4" />
		<edge from-layer="2823" from-port="5" to-layer="2825" to-port="0" />
		<edge from-layer="2824" from-port="0" to-layer="2825" to-port="1" />
		<edge from-layer="2825" from-port="2" to-layer="2833" to-port="0" />
		<edge from-layer="2825" from-port="2" to-layer="2836" to-port="1" />
		<edge from-layer="2826" from-port="0" to-layer="2830" to-port="1" />
		<edge from-layer="2827" from-port="0" to-layer="2830" to-port="2" />
		<edge from-layer="2828" from-port="0" to-layer="2830" to-port="3" />
		<edge from-layer="2829" from-port="0" to-layer="2830" to-port="4" />
		<edge from-layer="2830" from-port="5" to-layer="2832" to-port="0" />
		<edge from-layer="2831" from-port="0" to-layer="2832" to-port="1" />
		<edge from-layer="2832" from-port="2" to-layer="2836" to-port="0" />
		<edge from-layer="2832" from-port="2" to-layer="2833" to-port="1" />
		<edge from-layer="2833" from-port="2" to-layer="2835" to-port="0" />
		<edge from-layer="2834" from-port="0" to-layer="2835" to-port="1" />
		<edge from-layer="2835" from-port="2" to-layer="2877" to-port="0" />
		<edge from-layer="2836" from-port="2" to-layer="2885" to-port="0" />
		<edge from-layer="2836" from-port="2" to-layer="2876" to-port="0" />
		<edge from-layer="2837" from-port="0" to-layer="2841" to-port="1" />
		<edge from-layer="2838" from-port="0" to-layer="2841" to-port="2" />
		<edge from-layer="2839" from-port="0" to-layer="2841" to-port="3" />
		<edge from-layer="2840" from-port="0" to-layer="2841" to-port="4" />
		<edge from-layer="2841" from-port="5" to-layer="2842" to-port="0" />
		<edge from-layer="2842" from-port="5" to-layer="2844" to-port="0" />
		<edge from-layer="2843" from-port="0" to-layer="2844" to-port="1" />
		<edge from-layer="2844" from-port="2" to-layer="2846" to-port="0" />
		<edge from-layer="2845" from-port="0" to-layer="2846" to-port="1" />
		<edge from-layer="2846" from-port="2" to-layer="2848" to-port="0" />
		<edge from-layer="2847" from-port="0" to-layer="2848" to-port="1" />
		<edge from-layer="2848" from-port="2" to-layer="2849" to-port="0" />
		<edge from-layer="2849" from-port="1" to-layer="2851" to-port="0" />
		<edge from-layer="2850" from-port="0" to-layer="2851" to-port="1" />
		<edge from-layer="2851" from-port="2" to-layer="2853" to-port="0" />
		<edge from-layer="2852" from-port="0" to-layer="2853" to-port="1" />
		<edge from-layer="2853" from-port="2" to-layer="2854" to-port="0" />
		<edge from-layer="2854" from-port="1" to-layer="2926" to-port="0" />
		<edge from-layer="2854" from-port="1" to-layer="2856" to-port="0" />
		<edge from-layer="2855" from-port="0" to-layer="2856" to-port="1" />
		<edge from-layer="2856" from-port="2" to-layer="2858" to-port="0" />
		<edge from-layer="2857" from-port="0" to-layer="2858" to-port="1" />
		<edge from-layer="2858" from-port="2" to-layer="2866" to-port="0" />
		<edge from-layer="2858" from-port="2" to-layer="2859" to-port="0" />
		<edge from-layer="2859" from-port="1" to-layer="2864" to-port="0" />
		<edge from-layer="2860" from-port="0" to-layer="2864" to-port="1" />
		<edge from-layer="2861" from-port="0" to-layer="2864" to-port="2" />
		<edge from-layer="2862" from-port="0" to-layer="2864" to-port="3" />
		<edge from-layer="2863" from-port="0" to-layer="2864" to-port="4" />
		<edge from-layer="2864" from-port="5" to-layer="2865" to-port="1" />
		<edge from-layer="2865" from-port="2" to-layer="2866" to-port="1" />
		<edge from-layer="2866" from-port="2" to-layer="2868" to-port="0" />
		<edge from-layer="2867" from-port="0" to-layer="2868" to-port="1" />
		<edge from-layer="2868" from-port="2" to-layer="2870" to-port="0" />
		<edge from-layer="2869" from-port="0" to-layer="2870" to-port="1" />
		<edge from-layer="2870" from-port="2" to-layer="2875" to-port="0" />
		<edge from-layer="2870" from-port="2" to-layer="2882" to-port="0" />
		<edge from-layer="2871" from-port="0" to-layer="2875" to-port="1" />
		<edge from-layer="2872" from-port="0" to-layer="2875" to-port="2" />
		<edge from-layer="2873" from-port="0" to-layer="2875" to-port="3" />
		<edge from-layer="2874" from-port="0" to-layer="2875" to-port="4" />
		<edge from-layer="2875" from-port="5" to-layer="2876" to-port="1" />
		<edge from-layer="2876" from-port="2" to-layer="2877" to-port="1" />
		<edge from-layer="2877" from-port="2" to-layer="2899" to-port="0" />
		<edge from-layer="2877" from-port="2" to-layer="2888" to-port="0" />
		<edge from-layer="2878" from-port="0" to-layer="2882" to-port="1" />
		<edge from-layer="2879" from-port="0" to-layer="2882" to-port="2" />
		<edge from-layer="2880" from-port="0" to-layer="2882" to-port="3" />
		<edge from-layer="2881" from-port="0" to-layer="2882" to-port="4" />
		<edge from-layer="2882" from-port="5" to-layer="2883" to-port="0" />
		<edge from-layer="2883" from-port="1" to-layer="2884" to-port="0" />
		<edge from-layer="2884" from-port="1" to-layer="2885" to-port="1" />
		<edge from-layer="2885" from-port="2" to-layer="2887" to-port="0" />
		<edge from-layer="2886" from-port="0" to-layer="2887" to-port="1" />
		<edge from-layer="2887" from-port="2" to-layer="2888" to-port="1" />
		<edge from-layer="2887" from-port="2" to-layer="2899" to-port="1" />
		<edge from-layer="2888" from-port="2" to-layer="2890" to-port="0" />
		<edge from-layer="2888" from-port="2" to-layer="2895" to-port="0" />
		<edge from-layer="2889" from-port="0" to-layer="2890" to-port="2" />
		<edge from-layer="2890" from-port="3" to-layer="2891" to-port="0" />
		<edge from-layer="2891" from-port="1" to-layer="2893" to-port="0" />
		<edge from-layer="2892" from-port="0" to-layer="2893" to-port="1" />
		<edge from-layer="2893" from-port="2" to-layer="2910" to-port="0" />
		<edge from-layer="2894" from-port="0" to-layer="2895" to-port="2" />
		<edge from-layer="2895" from-port="3" to-layer="2896" to-port="0" />
		<edge from-layer="2896" from-port="1" to-layer="2898" to-port="0" />
		<edge from-layer="2897" from-port="0" to-layer="2898" to-port="1" />
		<edge from-layer="2898" from-port="2" to-layer="2910" to-port="1" />
		<edge from-layer="2899" from-port="2" to-layer="2901" to-port="0" />
		<edge from-layer="2899" from-port="2" to-layer="2906" to-port="0" />
		<edge from-layer="2900" from-port="0" to-layer="2901" to-port="2" />
		<edge from-layer="2901" from-port="3" to-layer="2902" to-port="0" />
		<edge from-layer="2902" from-port="1" to-layer="2904" to-port="0" />
		<edge from-layer="2903" from-port="0" to-layer="2904" to-port="1" />
		<edge from-layer="2904" from-port="2" to-layer="2910" to-port="2" />
		<edge from-layer="2905" from-port="0" to-layer="2906" to-port="2" />
		<edge from-layer="2906" from-port="3" to-layer="2907" to-port="0" />
		<edge from-layer="2907" from-port="1" to-layer="2909" to-port="0" />
		<edge from-layer="2908" from-port="0" to-layer="2909" to-port="1" />
		<edge from-layer="2909" from-port="2" to-layer="2910" to-port="3" />
		<edge from-layer="2910" from-port="4" to-layer="2912" to-port="0" />
		<edge from-layer="2911" from-port="0" to-layer="2912" to-port="1" />
		<edge from-layer="2912" from-port="2" to-layer="2914" to-port="0" />
		<edge from-layer="2913" from-port="0" to-layer="2914" to-port="1" />
		<edge from-layer="2914" from-port="2" to-layer="2915" to-port="0" />
		<edge from-layer="2914" from-port="2" to-layer="2924" to-port="0" />
		<edge from-layer="2915" from-port="1" to-layer="2919" to-port="0" />
		<edge from-layer="2915" from-port="1" to-layer="2951" to-port="0" />
		<edge from-layer="2915" from-port="1" to-layer="2958" to-port="0" />
		<edge from-layer="2916" from-port="0" to-layer="2919" to-port="1" />
		<edge from-layer="2917" from-port="0" to-layer="2919" to-port="2" />
		<edge from-layer="2918" from-port="0" to-layer="2919" to-port="3" />
		<edge from-layer="2919" from-port="4" to-layer="2921" to-port="0" />
		<edge from-layer="2920" from-port="0" to-layer="2921" to-port="1" />
		<edge from-layer="2921" from-port="2" to-layer="2923" to-port="0" />
		<edge from-layer="2922" from-port="0" to-layer="2923" to-port="1" />
		<edge from-layer="2923" from-port="2" to-layer="2924" to-port="1" />
		<edge from-layer="2924" from-port="2" to-layer="2962" to-port="0" />
		<edge from-layer="2925" from-port="0" to-layer="2926" to-port="1" />
		<edge from-layer="2926" from-port="2" to-layer="2928" to-port="0" />
		<edge from-layer="2927" from-port="0" to-layer="2928" to-port="1" />
		<edge from-layer="2928" from-port="2" to-layer="2936" to-port="0" />
		<edge from-layer="2928" from-port="2" to-layer="2929" to-port="0" />
		<edge from-layer="2929" from-port="1" to-layer="2934" to-port="0" />
		<edge from-layer="2930" from-port="0" to-layer="2934" to-port="1" />
		<edge from-layer="2931" from-port="0" to-layer="2934" to-port="2" />
		<edge from-layer="2932" from-port="0" to-layer="2934" to-port="3" />
		<edge from-layer="2933" from-port="0" to-layer="2934" to-port="4" />
		<edge from-layer="2934" from-port="5" to-layer="2935" to-port="1" />
		<edge from-layer="2935" from-port="2" to-layer="2936" to-port="1" />
		<edge from-layer="2936" from-port="2" to-layer="2937" to-port="0" />
		<edge from-layer="2937" from-port="1" to-layer="2942" to-port="0" />
		<edge from-layer="2938" from-port="0" to-layer="2942" to-port="1" />
		<edge from-layer="2939" from-port="0" to-layer="2942" to-port="2" />
		<edge from-layer="2940" from-port="0" to-layer="2942" to-port="3" />
		<edge from-layer="2941" from-port="0" to-layer="2942" to-port="4" />
		<edge from-layer="2942" from-port="5" to-layer="3018" to-port="0" />
		<edge from-layer="2942" from-port="5" to-layer="3009" to-port="0" />
		<edge from-layer="2942" from-port="5" to-layer="2982" to-port="0" />
		<edge from-layer="2942" from-port="5" to-layer="2944" to-port="0" />
		<edge from-layer="2943" from-port="0" to-layer="2944" to-port="1" />
		<edge from-layer="2944" from-port="2" to-layer="2946" to-port="0" />
		<edge from-layer="2945" from-port="0" to-layer="2946" to-port="1" />
		<edge from-layer="2946" from-port="3" to-layer="2947" to-port="0" />
		<edge from-layer="2947" from-port="1" to-layer="2960" to-port="0" />
		<edge from-layer="2948" from-port="0" to-layer="2953" to-port="0" />
		<edge from-layer="2949" from-port="0" to-layer="2951" to-port="1" />
		<edge from-layer="2950" from-port="0" to-layer="2951" to-port="2" />
		<edge from-layer="2951" from-port="3" to-layer="2953" to-port="1" />
		<edge from-layer="2952" from-port="0" to-layer="2953" to-port="2" />
		<edge from-layer="2953" from-port="3" to-layer="2955" to-port="0" />
		<edge from-layer="2954" from-port="0" to-layer="2955" to-port="1" />
		<edge from-layer="2955" from-port="2" to-layer="2959" to-port="0" />
		<edge from-layer="2956" from-port="0" to-layer="2958" to-port="1" />
		<edge from-layer="2957" from-port="0" to-layer="2958" to-port="2" />
		<edge from-layer="2958" from-port="3" to-layer="2959" to-port="1" />
		<edge from-layer="2959" from-port="2" to-layer="2960" to-port="1" />
		<edge from-layer="2960" from-port="2" to-layer="2962" to-port="1" />
		<edge from-layer="2961" from-port="0" to-layer="2962" to-port="2" />
		<edge from-layer="2962" from-port="3" to-layer="2964" to-port="0" />
		<edge from-layer="2963" from-port="0" to-layer="2964" to-port="1" />
		<edge from-layer="2964" from-port="2" to-layer="2966" to-port="0" />
		<edge from-layer="2965" from-port="0" to-layer="2966" to-port="1" />
		<edge from-layer="2966" from-port="2" to-layer="2970" to-port="0" />
		<edge from-layer="2967" from-port="0" to-layer="2969" to-port="1" />
		<edge from-layer="2968" from-port="0" to-layer="2969" to-port="2" />
		<edge from-layer="2969" from-port="3" to-layer="2970" to-port="1" />
		<edge from-layer="2970" from-port="2" to-layer="2971" to-port="0" />
		<edge from-layer="2970" from-port="2" to-layer="2980" to-port="0" />
		<edge from-layer="2971" from-port="1" to-layer="2996" to-port="0" />
		<edge from-layer="2971" from-port="1" to-layer="3006" to-port="0" />
		<edge from-layer="2971" from-port="1" to-layer="2975" to-port="0" />
		<edge from-layer="2972" from-port="0" to-layer="2975" to-port="1" />
		<edge from-layer="2973" from-port="0" to-layer="2975" to-port="2" />
		<edge from-layer="2974" from-port="0" to-layer="2975" to-port="3" />
		<edge from-layer="2975" from-port="4" to-layer="2977" to-port="0" />
		<edge from-layer="2976" from-port="0" to-layer="2977" to-port="1" />
		<edge from-layer="2977" from-port="2" to-layer="2979" to-port="0" />
		<edge from-layer="2978" from-port="0" to-layer="2979" to-port="1" />
		<edge from-layer="2979" from-port="2" to-layer="2980" to-port="1" />
		<edge from-layer="2980" from-port="2" to-layer="3000" to-port="0" />
		<edge from-layer="2981" from-port="0" to-layer="2982" to-port="1" />
		<edge from-layer="2982" from-port="2" to-layer="2991" to-port="0" />
		<edge from-layer="2983" from-port="0" to-layer="2985" to-port="0" />
		<edge from-layer="2984" from-port="1" to-layer="2985" to-port="1" />
		<edge from-layer="2984" from-port="1" to-layer="2986" to-port="2" />
		<edge from-layer="2985" from-port="2" to-layer="2986" to-port="0" />
		<edge from-layer="2986" from-port="3" to-layer="2988" to-port="0" />
		<edge from-layer="2987" from-port="0" to-layer="2988" to-port="1" />
		<edge from-layer="2988" from-port="2" to-layer="2990" to-port="0" />
		<edge from-layer="2989" from-port="0" to-layer="2990" to-port="1" />
		<edge from-layer="2990" from-port="2" to-layer="2991" to-port="1" />
		<edge from-layer="2991" from-port="3" to-layer="2998" to-port="0" />
		<edge from-layer="2991" from-port="3" to-layer="3023" to-port="0" />
		<edge from-layer="2992" from-port="0" to-layer="2993" to-port="1" />
		<edge from-layer="2993" from-port="2" to-layer="3022" to-port="0" />
		<edge from-layer="2993" from-port="2" to-layer="3246" to-port="0" />
		<edge from-layer="2993" from-port="2" to-layer="2997" to-port="0" />
		<edge from-layer="2993" from-port="2" to-layer="3131" to-port="0" />
		<edge from-layer="2994" from-port="0" to-layer="2996" to-port="1" />
		<edge from-layer="2995" from-port="0" to-layer="2996" to-port="2" />
		<edge from-layer="2996" from-port="3" to-layer="2997" to-port="1" />
		<edge from-layer="2997" from-port="2" to-layer="2998" to-port="1" />
		<edge from-layer="2998" from-port="2" to-layer="3003" to-port="0" />
		<edge from-layer="2998" from-port="2" to-layer="3000" to-port="1" />
		<edge from-layer="2999" from-port="0" to-layer="3000" to-port="2" />
		<edge from-layer="3000" from-port="3" to-layer="3002" to-port="0" />
		<edge from-layer="3001" from-port="0" to-layer="3002" to-port="1" />
		<edge from-layer="3002" from-port="2" to-layer="3008" to-port="0" />
		<edge from-layer="3003" from-port="1" to-layer="3007" to-port="0" />
		<edge from-layer="3004" from-port="0" to-layer="3006" to-port="1" />
		<edge from-layer="3005" from-port="0" to-layer="3006" to-port="2" />
		<edge from-layer="3006" from-port="3" to-layer="3007" to-port="1" />
		<edge from-layer="3007" from-port="2" to-layer="3008" to-port="1" />
		<edge from-layer="3008" from-port="2" to-layer="3039" to-port="0" />
		<edge from-layer="3008" from-port="2" to-layer="3047" to-port="0" />
		<edge from-layer="3008" from-port="2" to-layer="3056" to-port="0" />
		<edge from-layer="3009" from-port="1" to-layer="3013" to-port="0" />
		<edge from-layer="3009" from-port="1" to-layer="3031" to-port="0" />
		<edge from-layer="3009" from-port="1" to-layer="3021" to-port="0" />
		<edge from-layer="3010" from-port="0" to-layer="3013" to-port="1" />
		<edge from-layer="3011" from-port="0" to-layer="3013" to-port="2" />
		<edge from-layer="3012" from-port="0" to-layer="3013" to-port="3" />
		<edge from-layer="3013" from-port="4" to-layer="3015" to-port="0" />
		<edge from-layer="3014" from-port="0" to-layer="3015" to-port="1" />
		<edge from-layer="3015" from-port="2" to-layer="3017" to-port="0" />
		<edge from-layer="3016" from-port="0" to-layer="3017" to-port="1" />
		<edge from-layer="3017" from-port="2" to-layer="3018" to-port="1" />
		<edge from-layer="3018" from-port="2" to-layer="3025" to-port="0" />
		<edge from-layer="3019" from-port="0" to-layer="3021" to-port="1" />
		<edge from-layer="3020" from-port="0" to-layer="3021" to-port="2" />
		<edge from-layer="3021" from-port="3" to-layer="3022" to-port="1" />
		<edge from-layer="3022" from-port="2" to-layer="3023" to-port="1" />
		<edge from-layer="3023" from-port="2" to-layer="3028" to-port="0" />
		<edge from-layer="3023" from-port="2" to-layer="3025" to-port="1" />
		<edge from-layer="3024" from-port="0" to-layer="3025" to-port="2" />
		<edge from-layer="3025" from-port="3" to-layer="3027" to-port="0" />
		<edge from-layer="3026" from-port="0" to-layer="3027" to-port="1" />
		<edge from-layer="3027" from-port="2" to-layer="3033" to-port="0" />
		<edge from-layer="3028" from-port="1" to-layer="3032" to-port="0" />
		<edge from-layer="3029" from-port="0" to-layer="3031" to-port="1" />
		<edge from-layer="3030" from-port="0" to-layer="3031" to-port="2" />
		<edge from-layer="3031" from-port="3" to-layer="3032" to-port="1" />
		<edge from-layer="3032" from-port="2" to-layer="3033" to-port="1" />
		<edge from-layer="3033" from-port="2" to-layer="3035" to-port="0" />
		<edge from-layer="3034" from-port="0" to-layer="3035" to-port="1" />
		<edge from-layer="3035" from-port="2" to-layer="3070" to-port="0" />
		<edge from-layer="3035" from-port="2" to-layer="3075" to-port="0" />
		<edge from-layer="3035" from-port="2" to-layer="3039" to-port="1" />
		<edge from-layer="3036" from-port="0" to-layer="3039" to-port="2" />
		<edge from-layer="3037" from-port="0" to-layer="3039" to-port="3" />
		<edge from-layer="3038" from-port="0" to-layer="3039" to-port="4" />
		<edge from-layer="3039" from-port="5" to-layer="3058" to-port="0" />
		<edge from-layer="3039" from-port="5" to-layer="3041" to-port="0" />
		<edge from-layer="3039" from-port="5" to-layer="3077" to-port="0" />
		<edge from-layer="3040" from-port="0" to-layer="3041" to-port="2" />
		<edge from-layer="3041" from-port="3" to-layer="3087" to-port="0" />
		<edge from-layer="3041" from-port="3" to-layer="3044" to-port="0" />
		<edge from-layer="3041" from-port="3" to-layer="3062" to-port="0" />
		<edge from-layer="3042" from-port="0" to-layer="3043" to-port="1" />
		<edge from-layer="3043" from-port="2" to-layer="3044" to-port="1" />
		<edge from-layer="3044" from-port="2" to-layer="3231" to-port="0" />
		<edge from-layer="3044" from-port="2" to-layer="3046" to-port="0" />
		<edge from-layer="3045" from-port="0" to-layer="3046" to-port="1" />
		<edge from-layer="3046" from-port="2" to-layer="3103" to-port="0" />
		<edge from-layer="3047" from-port="1" to-layer="3051" to-port="0" />
		<edge from-layer="3047" from-port="1" to-layer="3061" to-port="0" />
		<edge from-layer="3048" from-port="0" to-layer="3051" to-port="1" />
		<edge from-layer="3049" from-port="0" to-layer="3051" to-port="2" />
		<edge from-layer="3050" from-port="0" to-layer="3051" to-port="3" />
		<edge from-layer="3051" from-port="4" to-layer="3053" to-port="0" />
		<edge from-layer="3052" from-port="0" to-layer="3053" to-port="1" />
		<edge from-layer="3053" from-port="2" to-layer="3055" to-port="0" />
		<edge from-layer="3054" from-port="0" to-layer="3055" to-port="1" />
		<edge from-layer="3055" from-port="2" to-layer="3056" to-port="1" />
		<edge from-layer="3056" from-port="2" to-layer="3065" to-port="0" />
		<edge from-layer="3057" from-port="0" to-layer="3058" to-port="2" />
		<edge from-layer="3058" from-port="3" to-layer="3082" to-port="0" />
		<edge from-layer="3058" from-port="3" to-layer="3063" to-port="0" />
		<edge from-layer="3059" from-port="0" to-layer="3061" to-port="1" />
		<edge from-layer="3060" from-port="0" to-layer="3061" to-port="2" />
		<edge from-layer="3061" from-port="3" to-layer="3062" to-port="1" />
		<edge from-layer="3062" from-port="2" to-layer="3063" to-port="1" />
		<edge from-layer="3063" from-port="2" to-layer="3065" to-port="1" />
		<edge from-layer="3064" from-port="0" to-layer="3065" to-port="2" />
		<edge from-layer="3065" from-port="3" to-layer="3067" to-port="0" />
		<edge from-layer="3066" from-port="0" to-layer="3067" to-port="1" />
		<edge from-layer="3067" from-port="2" to-layer="3069" to-port="0" />
		<edge from-layer="3068" from-port="0" to-layer="3069" to-port="1" />
		<edge from-layer="3069" from-port="2" to-layer="3095" to-port="0" />
		<edge from-layer="3070" from-port="1" to-layer="3085" to-port="0" />
		<edge from-layer="3070" from-port="1" to-layer="3080" to-port="0" />
		<edge from-layer="3070" from-port="1" to-layer="3072" to-port="0" />
		<edge from-layer="3071" from-port="0" to-layer="3072" to-port="1" />
		<edge from-layer="3072" from-port="2" to-layer="3074" to-port="0" />
		<edge from-layer="3073" from-port="0" to-layer="3074" to-port="1" />
		<edge from-layer="3074" from-port="2" to-layer="3075" to-port="1" />
		<edge from-layer="3075" from-port="2" to-layer="3090" to-port="0" />
		<edge from-layer="3076" from-port="0" to-layer="3077" to-port="2" />
		<edge from-layer="3077" from-port="3" to-layer="3081" to-port="0" />
		<edge from-layer="3077" from-port="3" to-layer="3226" to-port="0" />
		<edge from-layer="3078" from-port="0" to-layer="3080" to-port="1" />
		<edge from-layer="3079" from-port="0" to-layer="3080" to-port="2" />
		<edge from-layer="3080" from-port="3" to-layer="3081" to-port="1" />
		<edge from-layer="3080" from-port="3" to-layer="3086" to-port="0" />
		<edge from-layer="3081" from-port="2" to-layer="3082" to-port="1" />
		<edge from-layer="3082" from-port="2" to-layer="3088" to-port="0" />
		<edge from-layer="3083" from-port="0" to-layer="3085" to-port="1" />
		<edge from-layer="3084" from-port="0" to-layer="3085" to-port="2" />
		<edge from-layer="3085" from-port="3" to-layer="3086" to-port="1" />
		<edge from-layer="3086" from-port="2" to-layer="3087" to-port="1" />
		<edge from-layer="3087" from-port="2" to-layer="3088" to-port="1" />
		<edge from-layer="3088" from-port="2" to-layer="3090" to-port="1" />
		<edge from-layer="3089" from-port="0" to-layer="3090" to-port="2" />
		<edge from-layer="3090" from-port="3" to-layer="3092" to-port="0" />
		<edge from-layer="3091" from-port="0" to-layer="3092" to-port="1" />
		<edge from-layer="3092" from-port="2" to-layer="3094" to-port="0" />
		<edge from-layer="3093" from-port="0" to-layer="3094" to-port="1" />
		<edge from-layer="3094" from-port="2" to-layer="3095" to-port="1" />
		<edge from-layer="3095" from-port="2" to-layer="3097" to-port="0" />
		<edge from-layer="3096" from-port="0" to-layer="3097" to-port="1" />
		<edge from-layer="3097" from-port="2" to-layer="3101" to-port="0" />
		<edge from-layer="3098" from-port="0" to-layer="3100" to-port="1" />
		<edge from-layer="3099" from-port="0" to-layer="3100" to-port="2" />
		<edge from-layer="3100" from-port="3" to-layer="3101" to-port="1" />
		<edge from-layer="3101" from-port="2" to-layer="3103" to-port="1" />
		<edge from-layer="3102" from-port="0" to-layer="3103" to-port="2" />
		<edge from-layer="3103" from-port="3" to-layer="3113" to-port="0" />
		<edge from-layer="3103" from-port="3" to-layer="3105" to-port="0" />
		<edge from-layer="3104" from-port="0" to-layer="3112" to-port="0" />
		<edge from-layer="3105" from-port="1" to-layer="3108" to-port="0" />
		<edge from-layer="3106" from-port="0" to-layer="3108" to-port="1" />
		<edge from-layer="3107" from-port="0" to-layer="3108" to-port="2" />
		<edge from-layer="3108" from-port="3" to-layer="3111" to-port="0" />
		<edge from-layer="3108" from-port="3" to-layer="3234" to-port="0" />
		<edge from-layer="3109" from-port="0" to-layer="3111" to-port="1" />
		<edge from-layer="3110" from-port="0" to-layer="3111" to-port="2" />
		<edge from-layer="3111" from-port="3" to-layer="3112" to-port="1" />
		<edge from-layer="3112" from-port="2" to-layer="3113" to-port="1" />
		<edge from-layer="3113" from-port="2" to-layer="3115" to-port="0" />
		<edge from-layer="3113" from-port="2" to-layer="3161" to-port="0" />
		<edge from-layer="3113" from-port="2" to-layer="3117" to-port="0" />
		<edge from-layer="3114" from-port="0" to-layer="3115" to-port="2" />
		<edge from-layer="3115" from-port="3" to-layer="3127" to-port="0" />
		<edge from-layer="3116" from-port="0" to-layer="3121" to-port="0" />
		<edge from-layer="3117" from-port="1" to-layer="3156" to-port="0" />
		<edge from-layer="3117" from-port="1" to-layer="3120" to-port="0" />
		<edge from-layer="3117" from-port="1" to-layer="3168" to-port="0" />
		<edge from-layer="3117" from-port="1" to-layer="3130" to-port="0" />
		<edge from-layer="3118" from-port="0" to-layer="3120" to-port="1" />
		<edge from-layer="3119" from-port="0" to-layer="3120" to-port="2" />
		<edge from-layer="3120" from-port="3" to-layer="3122" to-port="2" />
		<edge from-layer="3120" from-port="3" to-layer="3121" to-port="1" />
		<edge from-layer="3121" from-port="2" to-layer="3122" to-port="0" />
		<edge from-layer="3122" from-port="3" to-layer="3124" to-port="0" />
		<edge from-layer="3123" from-port="0" to-layer="3124" to-port="1" />
		<edge from-layer="3124" from-port="2" to-layer="3126" to-port="0" />
		<edge from-layer="3125" from-port="0" to-layer="3126" to-port="1" />
		<edge from-layer="3126" from-port="2" to-layer="3127" to-port="1" />
		<edge from-layer="3127" from-port="3" to-layer="3132" to-port="0" />
		<edge from-layer="3127" from-port="3" to-layer="3247" to-port="0" />
		<edge from-layer="3128" from-port="0" to-layer="3130" to-port="1" />
		<edge from-layer="3129" from-port="0" to-layer="3130" to-port="2" />
		<edge from-layer="3130" from-port="3" to-layer="3131" to-port="1" />
		<edge from-layer="3131" from-port="2" to-layer="3132" to-port="1" />
		<edge from-layer="3132" from-port="2" to-layer="3163" to-port="1" />
		<edge from-layer="3132" from-port="2" to-layer="3133" to-port="0" />
		<edge from-layer="3133" from-port="1" to-layer="3169" to-port="0" />
		<edge from-layer="3133" from-port="1" to-layer="3147" to-port="0" />
		<edge from-layer="3133" from-port="1" to-layer="3136" to-port="0" />
		<edge from-layer="3134" from-port="0" to-layer="3136" to-port="1" />
		<edge from-layer="3135" from-port="0" to-layer="3136" to-port="2" />
		<edge from-layer="3136" from-port="3" to-layer="3144" to-port="0" />
		<edge from-layer="3136" from-port="3" to-layer="3138" to-port="1" />
		<edge from-layer="3137" from-port="0" to-layer="3138" to-port="2" />
		<edge from-layer="3138" from-port="3" to-layer="3139" to-port="0" />
		<edge from-layer="3139" from-port="1" to-layer="3141" to-port="0" />
		<edge from-layer="3140" from-port="0" to-layer="3141" to-port="1" />
		<edge from-layer="3141" from-port="2" to-layer="3152" to-port="0" />
		<edge from-layer="3142" from-port="0" to-layer="3149" to-port="0" />
		<edge from-layer="3143" from-port="0" to-layer="3144" to-port="1" />
		<edge from-layer="3144" from-port="2" to-layer="3148" to-port="0" />
		<edge from-layer="3144" from-port="2" to-layer="3276" to-port="0" />
		<edge from-layer="3145" from-port="0" to-layer="3147" to-port="1" />
		<edge from-layer="3146" from-port="0" to-layer="3147" to-port="2" />
		<edge from-layer="3147" from-port="3" to-layer="3276" to-port="1" />
		<edge from-layer="3147" from-port="3" to-layer="3148" to-port="1" />
		<edge from-layer="3148" from-port="2" to-layer="3149" to-port="1" />
		<edge from-layer="3149" from-port="2" to-layer="3151" to-port="0" />
		<edge from-layer="3150" from-port="0" to-layer="3151" to-port="1" />
		<edge from-layer="3151" from-port="2" to-layer="3152" to-port="1" />
		<edge from-layer="3152" from-port="2" to-layer="3176" to-port="0" />
		<edge from-layer="3153" from-port="0" to-layer="3156" to-port="1" />
		<edge from-layer="3154" from-port="0" to-layer="3156" to-port="2" />
		<edge from-layer="3155" from-port="0" to-layer="3156" to-port="3" />
		<edge from-layer="3156" from-port="4" to-layer="3158" to-port="0" />
		<edge from-layer="3157" from-port="0" to-layer="3158" to-port="1" />
		<edge from-layer="3158" from-port="2" to-layer="3160" to-port="0" />
		<edge from-layer="3159" from-port="0" to-layer="3160" to-port="1" />
		<edge from-layer="3160" from-port="2" to-layer="3161" to-port="1" />
		<edge from-layer="3161" from-port="2" to-layer="3163" to-port="0" />
		<edge from-layer="3162" from-port="0" to-layer="3163" to-port="2" />
		<edge from-layer="3163" from-port="3" to-layer="3165" to-port="0" />
		<edge from-layer="3164" from-port="0" to-layer="3165" to-port="1" />
		<edge from-layer="3165" from-port="2" to-layer="3170" to-port="0" />
		<edge from-layer="3166" from-port="0" to-layer="3168" to-port="1" />
		<edge from-layer="3167" from-port="0" to-layer="3168" to-port="2" />
		<edge from-layer="3168" from-port="3" to-layer="3169" to-port="1" />
		<edge from-layer="3169" from-port="2" to-layer="3170" to-port="1" />
		<edge from-layer="3170" from-port="2" to-layer="3280" to-port="0" />
		<edge from-layer="3170" from-port="2" to-layer="3175" to-port="0" />
		<edge from-layer="3171" from-port="0" to-layer="3175" to-port="1" />
		<edge from-layer="3172" from-port="0" to-layer="3175" to-port="2" />
		<edge from-layer="3173" from-port="0" to-layer="3175" to-port="3" />
		<edge from-layer="3174" from-port="0" to-layer="3175" to-port="4" />
		<edge from-layer="3175" from-port="5" to-layer="3176" to-port="1" />
		<edge from-layer="3176" from-port="2" to-layer="3178" to-port="0" />
		<edge from-layer="3177" from-port="0" to-layer="3178" to-port="1" />
		<edge from-layer="3178" from-port="2" to-layer="3183" to-port="0" />
		<edge from-layer="3179" from-port="0" to-layer="3183" to-port="1" />
		<edge from-layer="3180" from-port="0" to-layer="3183" to-port="2" />
		<edge from-layer="3181" from-port="0" to-layer="3183" to-port="3" />
		<edge from-layer="3182" from-port="0" to-layer="3183" to-port="4" />
		<edge from-layer="3183" from-port="5" to-layer="3184" to-port="0" />
		<edge from-layer="3184" from-port="5" to-layer="3186" to-port="0" />
		<edge from-layer="3185" from-port="0" to-layer="3186" to-port="1" />
		<edge from-layer="3186" from-port="2" to-layer="3188" to-port="0" />
		<edge from-layer="3187" from-port="0" to-layer="3188" to-port="1" />
		<edge from-layer="3188" from-port="2" to-layer="3189" to-port="0" />
		<edge from-layer="3189" from-port="1" to-layer="3191" to-port="0" />
		<edge from-layer="3190" from-port="0" to-layer="3191" to-port="1" />
		<edge from-layer="3191" from-port="2" to-layer="3193" to-port="0" />
		<edge from-layer="3192" from-port="0" to-layer="3193" to-port="1" />
		<edge from-layer="3193" from-port="2" to-layer="3194" to-port="0" />
		<edge from-layer="3194" from-port="1" to-layer="3196" to-port="0" />
		<edge from-layer="3195" from-port="0" to-layer="3196" to-port="1" />
		<edge from-layer="3196" from-port="2" to-layer="3198" to-port="0" />
		<edge from-layer="3197" from-port="0" to-layer="3198" to-port="1" />
		<edge from-layer="3198" from-port="2" to-layer="3199" to-port="0" />
		<edge from-layer="3199" from-port="1" to-layer="3201" to-port="0" />
		<edge from-layer="3200" from-port="0" to-layer="3201" to-port="1" />
		<edge from-layer="3201" from-port="2" to-layer="3203" to-port="0" />
		<edge from-layer="3202" from-port="0" to-layer="3203" to-port="1" />
		<edge from-layer="3203" from-port="2" to-layer="3204" to-port="0" />
		<edge from-layer="3204" from-port="1" to-layer="3206" to-port="0" />
		<edge from-layer="3205" from-port="0" to-layer="3206" to-port="1" />
		<edge from-layer="3206" from-port="2" to-layer="3208" to-port="0" />
		<edge from-layer="3207" from-port="0" to-layer="3208" to-port="1" />
		<edge from-layer="3208" from-port="2" to-layer="3209" to-port="0" />
		<edge from-layer="3209" from-port="1" to-layer="3211" to-port="0" />
		<edge from-layer="3210" from-port="0" to-layer="3211" to-port="1" />
		<edge from-layer="3211" from-port="2" to-layer="3213" to-port="0" />
		<edge from-layer="3212" from-port="0" to-layer="3213" to-port="1" />
		<edge from-layer="3213" from-port="2" to-layer="3214" to-port="0" />
		<edge from-layer="3214" from-port="1" to-layer="3215" to-port="0" />
		<edge from-layer="3214" from-port="1" to-layer="3224" to-port="0" />
		<edge from-layer="3215" from-port="1" to-layer="3219" to-port="0" />
		<edge from-layer="3215" from-port="1" to-layer="3264" to-port="0" />
		<edge from-layer="3215" from-port="1" to-layer="3259" to-port="0" />
		<edge from-layer="3216" from-port="0" to-layer="3219" to-port="1" />
		<edge from-layer="3217" from-port="0" to-layer="3219" to-port="2" />
		<edge from-layer="3218" from-port="0" to-layer="3219" to-port="3" />
		<edge from-layer="3219" from-port="4" to-layer="3221" to-port="0" />
		<edge from-layer="3220" from-port="0" to-layer="3221" to-port="1" />
		<edge from-layer="3221" from-port="2" to-layer="3223" to-port="0" />
		<edge from-layer="3222" from-port="0" to-layer="3223" to-port="1" />
		<edge from-layer="3223" from-port="2" to-layer="3224" to-port="1" />
		<edge from-layer="3224" from-port="2" to-layer="3268" to-port="0" />
		<edge from-layer="3225" from-port="0" to-layer="3226" to-port="1" />
		<edge from-layer="3226" from-port="2" to-layer="3229" to-port="0" />
		<edge from-layer="3227" from-port="0" to-layer="3228" to-port="1" />
		<edge from-layer="3228" from-port="2" to-layer="3229" to-port="1" />
		<edge from-layer="3229" from-port="2" to-layer="3231" to-port="1" />
		<edge from-layer="3230" from-port="0" to-layer="3231" to-port="2" />
		<edge from-layer="3231" from-port="3" to-layer="3236" to-port="0" />
		<edge from-layer="3232" from-port="0" to-layer="3235" to-port="0" />
		<edge from-layer="3233" from-port="0" to-layer="3234" to-port="1" />
		<edge from-layer="3234" from-port="2" to-layer="3235" to-port="1" />
		<edge from-layer="3235" from-port="2" to-layer="3236" to-port="1" />
		<edge from-layer="3236" from-port="2" to-layer="3237" to-port="0" />
		<edge from-layer="3236" from-port="2" to-layer="3242" to-port="0" />
		<edge from-layer="3237" from-port="1" to-layer="3239" to-port="0" />
		<edge from-layer="3237" from-port="1" to-layer="3245" to-port="0" />
		<edge from-layer="3238" from-port="0" to-layer="3239" to-port="1" />
		<edge from-layer="3239" from-port="2" to-layer="3241" to-port="0" />
		<edge from-layer="3240" from-port="0" to-layer="3241" to-port="1" />
		<edge from-layer="3241" from-port="2" to-layer="3242" to-port="1" />
		<edge from-layer="3242" from-port="2" to-layer="3249" to-port="0" />
		<edge from-layer="3243" from-port="0" to-layer="3245" to-port="1" />
		<edge from-layer="3244" from-port="0" to-layer="3245" to-port="2" />
		<edge from-layer="3245" from-port="3" to-layer="3246" to-port="1" />
		<edge from-layer="3246" from-port="2" to-layer="3247" to-port="1" />
		<edge from-layer="3247" from-port="2" to-layer="3252" to-port="0" />
		<edge from-layer="3247" from-port="2" to-layer="3249" to-port="1" />
		<edge from-layer="3248" from-port="0" to-layer="3249" to-port="2" />
		<edge from-layer="3249" from-port="3" to-layer="3251" to-port="0" />
		<edge from-layer="3250" from-port="0" to-layer="3251" to-port="1" />
		<edge from-layer="3251" from-port="2" to-layer="3253" to-port="0" />
		<edge from-layer="3252" from-port="1" to-layer="3253" to-port="1" />
		<edge from-layer="3253" from-port="2" to-layer="3279" to-port="0" />
		<edge from-layer="3253" from-port="2" to-layer="3255" to-port="0" />
		<edge from-layer="3254" from-port="0" to-layer="3255" to-port="1" />
		<edge from-layer="3255" from-port="2" to-layer="3266" to-port="0" />
		<edge from-layer="3256" from-port="0" to-layer="3261" to-port="0" />
		<edge from-layer="3257" from-port="0" to-layer="3259" to-port="1" />
		<edge from-layer="3258" from-port="0" to-layer="3259" to-port="2" />
		<edge from-layer="3259" from-port="3" to-layer="3261" to-port="1" />
		<edge from-layer="3260" from-port="0" to-layer="3261" to-port="2" />
		<edge from-layer="3261" from-port="3" to-layer="3265" to-port="0" />
		<edge from-layer="3262" from-port="0" to-layer="3264" to-port="1" />
		<edge from-layer="3263" from-port="0" to-layer="3264" to-port="2" />
		<edge from-layer="3264" from-port="3" to-layer="3265" to-port="1" />
		<edge from-layer="3265" from-port="2" to-layer="3266" to-port="1" />
		<edge from-layer="3266" from-port="2" to-layer="3268" to-port="1" />
		<edge from-layer="3267" from-port="0" to-layer="3268" to-port="2" />
		<edge from-layer="3268" from-port="3" to-layer="3270" to-port="0" />
		<edge from-layer="3269" from-port="0" to-layer="3270" to-port="1" />
		<edge from-layer="3270" from-port="2" to-layer="3272" to-port="0" />
		<edge from-layer="3271" from-port="0" to-layer="3272" to-port="1" />
		<edge from-layer="3272" from-port="2" to-layer="3274" to-port="0" />
		<edge from-layer="3273" from-port="0" to-layer="3274" to-port="1" />
		<edge from-layer="3274" from-port="2" to-layer="3277" to-port="0" />
		<edge from-layer="3275" from-port="0" to-layer="3276" to-port="2" />
		<edge from-layer="3276" from-port="3" to-layer="3277" to-port="1" />
		<edge from-layer="3277" from-port="2" to-layer="3278" to-port="0" />
	</edges>
	<rt_info>
		<Runtime_version value="2024.3.0-16041-1e3b88e4e3f-releases/2024/3" />
		<conversion_parameters>
			<is_python_object value="False" />
		</conversion_parameters>
		<model_info>
			<confidence_threshold value="0.32500000000000007" />
			<iou_threshold value="0.5" />
			<label_ids value="None 675ad662e9005102abff322c 675ad662e9005102abff322d 675ad662e9005102abff322e 675ad662e9005102abff322f" />
			<label_info value="{&quot;label_names&quot;: [&quot;675ad662e9005102abff322c&quot;, &quot;675ad662e9005102abff322d&quot;, &quot;675ad662e9005102abff322e&quot;, &quot;675ad662e9005102abff322f&quot;], &quot;label_groups&quot;: [[&quot;675ad662e9005102abff322c&quot;, &quot;675ad662e9005102abff322d&quot;, &quot;675ad662e9005102abff322e&quot;, &quot;675ad662e9005102abff322f&quot;]]}" />
			<labels value="otx_empty_lbl 675ad662e9005102abff322c 675ad662e9005102abff322d 675ad662e9005102abff322e 675ad662e9005102abff322f" />
			<mean_values value="123.675 116.28 103.53" />
			<model_type value="MaskRCNN" />
			<optimization_config value="{&quot;ignored_scope&quot;: {&quot;types&quot;: [&quot;Add&quot;, &quot;Divide&quot;, &quot;Multiply&quot;, &quot;Sigmoid&quot;], &quot;validate&quot;: false}, &quot;preset&quot;: &quot;mixed&quot;}" />
			<pad_value value="0" />
			<resize_type value="fit_to_window" />
			<reverse_input_channels value="False" />
			<scale_values value="1.0 1.0 1.0" />
			<task_type value="instance_segmentation" />
		</model_info>
	</rt_info>
</net>
